models/classifier_dann.pth (torch, 5029 bytes, 2 tensors)

weight f4 [3, 256]
0	0xba685705	-0.00088630646
1	0xbd7acece	-0.06123238
2	0x3b8960bb	0.0041924394
3	0x3d1a64e0	0.03769386
4	0x3cb5bb13	0.02218393
5	0xbdaca295	-0.084294476
6	0xbc952d8a	-0.018210191
7	0x3d1fd167	0.03901806
8	0x3cafba54	0.021451153
9	0x3ca7d043	0.02048505
10	0x3d9a9f8e	0.07549964
11	0x3cb6f656	0.022334259
12	0xbd69a3be	-0.057040922
13	0x3d395b33	0.04525299
14	0x3cd45b5d	0.025922472
15	0x3d9c07b8	0.0761866
16	0xbc0868c4	-0.008325759
17	0xbc93fc7d	-0.018064732
18	0xbc7d8a06	-0.015474802
19	0xbbf2f552	-0.0074144984
20	0x3d306e10	0.043073714
21	0x3cef2e37	0.029196842
22	0xbda06c15	-0.07833115
23	0xbd9f4315	-0.07776467
24	0xbcf845d9	-0.030306743
25	0xbd5ecf45	-0.054396886
26	0x3c4766d0	0.0121705085
27	0x3c9700f5	0.018433074
28	0x3dbcd999	0.09221191
29	0xba6c3390	-0.0009010369
30	0xbd607c6d	-0.05480616
31	0x3d2773cb	0.040881913
32	0xbd558489	-0.05212835
33	0x3d8e217b	0.0693998
34	0xbc7bf5bb	-0.015378411
35	0x3c44438a	0.011978993
36	0xbd6ed27e	-0.05830621
37	0x3ccb4fdd	0.024818355
38	0x3d276ecc	0.04087715
39	0xbd28b54b	-0.04118852
40	0x3d2cde30	0.042204082
41	0x3c1246c7	0.008928007
42	0x3d50ceb1	0.050978366
43	0xbdc2c003	-0.095092796
44	0xbd8f57aa	-0.069991425
45	0xbcb5b867	-0.022182656
46	0xbd5e5d90	-0.054288447
47	0xbd5526f8	-0.052039117
48	0xbcec81ba	-0.028870452
49	0x3da29895	0.07939259
50	0x3c958af6	0.018254738
51	0x3d5f255c	0.054478988
52	0x3cede3cd	0.029039288
53	0xbd0ce883	-0.034401428
54	0x3d2ea417	0.042636957
55	0xbd87d574	-0.0663251
56	0xbd9cab81	-0.07649899
57	0xbd853903	-0.06505015
58	0x3cc14947	0.023594512
59	0xbd3c4a0d	-0.045969058
60	0x3b99bdce	0.004691816
61	0x3d7d8430	0.061893642
62	0x3d5bf4fa	0.053700425
63	0x3d865d05	0.06560711
64	0x3c132ba6	0.008982575
65	0xbbf6f29a	-0.0075362446
66	0xbd0f0a0a	-0.034921683
67	0x3cb7e601	0.022448542
68	0x3ca6cb4b	0.02036061
69	0xbc99d33c	-0.018777482
70	0xbc79d9ba	-0.015249664
71	0x3cdf46e8	0.02725549
72	0xbd85424c	-0.06506786
73	0x3d4cf49d	0.05003797
74	0xbbf6d658	-0.007532876
75	0x3dc70c2a	0.09719117
76	0xbd89cf0b	-0.067289434
77	0xbdd33c2c	-0.10314211
78	0x3d365e33	0.04452343
79	0x3d932313	0.07184424
80	0xbc290b36	-0.010317614
81	0xbd667646	-0.056265138
82	0x3d4e42c9	0.05035666
83	0xbd46d785	-0.04854538
84	0xbc5d028d	-0.013489378
85	0x3d39a60b	0.045324367
86	0x3c0c32df	0.0085570505
87	0x3ca224da	0.019792963
88	0x3d0e5158	0.034745544
89	0xbd2cb771	-0.04216713
90	0xbcf5c7e3	-0.03000254
91	0x3cbb4752	0.022861157
92	0x3bf04e9e	0.0073335906
93	0x3cce4be8	0.02518268
94	0xbc217b66	-0.009856081
95	0x3dab4fd3	0.08364835
96	0x3d903943	0.07042172
97	0xbb0f1277	-0.0021831074
98	0x3c89102a	0.01673134
99	0x3bb85f05	0.0056265616
100	0xbd2deb0a	-0.04246048
101	0x3d469416	0.04848107
102	0x3c09e01b	0.008415247
103	0x3d265c15	0.04061516
104	0x3d62cb10	0.055369437
105	0x3afc7c1b	0.001926306
106	0xbcf92a6a	-0.030415732
107	0x3d120b86	0.03565552
108	0xbdbcebc4	-0.09224656
109	0x3bf4f22a	0.0074751573
110	0x3c675559	0.01411947
111	0xbcc2598b	-0.023724338
112	0xbd88814d	-0.06665287
113	0x3d758096	0.059937082
114	0xbd75e044	-0.06002833
115	0x3d5e329d	0.054247487
116	0x3c881225	0.016610214
117	0xbc27e0d7	-0.010246477
118	0x3b8bbd15	0.0042644837
119	0xbd3e9367	-0.046527293
120	0xbd28c96e	-0.041207723
121	0xbd88e428	-0.06684142
122	0x3d0d6e50	0.03452903
123	0xbb7049c1	-0.0036665055
124	0xbce7e6fb	-0.028308382
125	0x3b061e50	0.0020464845
126	0xbd1037de	-0.03520953
127	0x3bca89ac	0.0061809625
128	0xbd86eea7	-0.06588488
129	0xbd8b7ac0	-0.06810522
130	0xbdc0cdb0	-0.09414232
131	0xbd8d1888	-0.068894446
132	0x3c643d4f	0.013930633
133	0xb8e87b79	-0.00011085621
134	0x3d85c597	0.06531828
135	0x3c0be008	0.0085373
136	0x3d9eb2e7	0.07748967
137	0xbd2d561a	-0.04231844
138	0xbdcd5d75	-0.10027591
139	0xbc073214	-0.008251686
140	0x3d09e605	0.03366663
141	0x3ab44757	0.0013754171
142	0x3c2c2e5e	0.010509102
143	0x3d600854	0.054695442
144	0xbc3e2a29	-0.011606731
145	0xbd2d1108	-0.04225257
146	0x3dc9ccc3	0.09853508
147	0x3d873632	0.06602134
148	0xbc0a2373	-0.008431303
149	0x3d671cba	0.05642388
150	0x3b8a0e54	0.004213134
151	0x3d9e5285	0.07730583
152	0x3d6624df	0.056187507
153	0xbd32e0c7	-0.043671396
154	0xbc9e6439	-0.0193349
155	0x3d20f555	0.039296467
156	0xbccd052f	-0.025026886
157	0x3dcf5786	0.10124116
158	0x3cbe48b1	0.023228021
159	0xbca166ce	-0.019702341
160	0x3d77666b	0.060400408
161	0x3c8b24e0	0.016985357
162	0x3d8699d0	0.06572306
163	0x3d1161a1	0.035493497
164	0xbbe5bb3d	-0.007010846
165	0x3c60f0be	0.013729272
166	0xbda474f1	-0.08030117
167	0x3d8f51c2	0.06998016
168	0x3d6b4dfc	0.05744742
169	0x3d30dab9	0.04317734
170	0x3d6d1ec4	0.05789067
171	0x3d1042e9	0.03522006
172	0x3c66fef5	0.014098872
173	0x3d16572b	0.036704224
174	0xbd989935	-0.07451097
175	0x3d1b9aba	0.037989356
176	0x3d3f5e59	0.046720836
177	0x390f36d3	0.00013657966
178	0x3d88aa86	0.0667315
179	0x3c5cf31b	0.013485695
180	0xbd7a3729	-0.06108776
181	0xbc96ea40	-0.018422246
182	0x3da76466	0.08173446
183	0x3d9a41c4	0.07532075
184	0x3d9d94fd	0.07694433
185	0xbd5b76af	-0.053579982
186	0x3d644583	0.055730354
187	0xbd7ddb1c	-0.061976537
188	0x3c6ac9cd	0.01433034
189	0xbd94e66f	-0.07270514
190	0xbda44853	-0.08021607
191	0x3d860ffa	0.06546016
192	0x3ca54e37	0.020178897
193	0xbd0a49c4	-0.033761755
194	0x3d231ca5	0.03982224
195	0xbcb7c17e	-0.022431131
196	0x3d84ef17	0.06490915
197	0x3da0486f	0.078263156
198	0xbd6a6c0e	-0.057231955
199	0x3d953737	0.07285922
200	0x3c89800a	0.016784687
201	0xbce1dfec	-0.027572595
202	0x3cb07275	0.021538952
203	0x3bca8b68	0.0061811693
204	0x3d2f3c4e	0.04278212
205	0x3d5640ab	0.052307766
206	0xbd047076	-0.032333814
207	0x3d9a7ae0	0.07542968
208	0x3d5174d6	0.051136814
209	0xbcc0bc93	-0.02352742
210	0xbd233494	-0.039845064
211	0xbc9d5ba1	-0.019208731
212	0x3d7c1562	0.06154383
213	0x3be3faa8	0.006957371
214	0x3d76bf64	0.060241118
215	0xbd9ea775	-0.07746784
216	0x3d7018a1	0.058617238
217	0xbd1f92e6	-0.038958453
218	0xbc20e1b0	-0.009819433
219	0xbd86a6bc	-0.06574771
220	0xbd9aac21	-0.07552362
221	0x3c97c65a	0.018527199
222	0x3cf6e03f	0.030136226
223	0xbd6f9816	-0.05849465
224	0x3da8994a	0.082323626
225	0xbcb21660	-0.021739185
226	0xbc0149f7	-0.00789117
227	0xbd28dd98	-0.041226953
228	0x3c2daafb	0.010599847
229	0x3caa5f36	0.020797353
230	0xbd39e3f2	-0.0453834
231	0xbd8e2874	-0.069413096
232	0xbb9486b0	-0.0045326576
233	0x3cc41f41	0.023940684
234	0xbd99671c	-0.0749037
235	0x3cedc140	0.029022813
236	0x3d0e3ea5	0.03472771
237	0xbc60cfad	-0.013721389
238	0xbd744cea	-0.059643663
239	0xbd3f9036	-0.04676839
240	0xbcda3ccd	-0.02664032
241	0xbd87a764	-0.06623724
242	0xbd23b2ed	-0.03996556
243	0xbd5165bf	-0.051122423
244	0x3cdaca4b	0.026707789
245	0xbd4c7f5b	-0.049926143
246	0xbd7b9761	-0.061423663
247	0x3dc892a3	0.09793594
248	0xbc9d415f	-0.01919621
249	0x3d8df943	0.069323085
250	0x3d2fdcee	0.042935304
251	0xbd4c4b3a	-0.04987643
252	0x3c498233	0.012299108
253	0x3bba2549	0.0056807143
254	0x3bd63afe	0.006537794
255	0x3d9c7884	0.07640174

bias f4 [3]
0	0xbb5621d3	-0.003267397
1	0xbd3b377a	-0.045707203
2	0xbc389861	-0.011266799
