models/classifier_ultimate.pth (torch, 5125 bytes, 2 tensors)

weight f4 [3, 256]
0.032934297 0.017751869 0.04550382 0.09611898 0.0963751 -0.105762556 -0.047272533 0.084389366
-0.08916214 0.0008613773 -0.028839555 0.047449294 0.0033568896 0.1001972 -0.0663307 -0.049671337
0.091519736 0.0166165 -0.04448532 0.10395765 0.07505401 -0.11410473 0.115581274 -0.104285024
0.070495114 -0.09514426 0.095376074 -0.0010212254 0.1277511 -0.06902743 -0.1160674 -0.11248279
0.07176328 -0.09220708 -0.06876873 -0.015919026 -0.03992307 0.014711446 -0.008828103 0.06934387
-0.09755725 -0.074353404 0.046430077 0.11459451 0.05036989 -0.10407776 -0.046016548 0.020756347
-0.123667866 -0.08681027 -0.11225543 0.042966735 -0.047472164 0.10045521 0.022724137 -0.095221624
0.06349504 -0.05101478 -0.04358474 -0.070042506 -0.036311507 0.10281369 -0.052972723 -0.10494709
0.062126677 -0.10152248 -0.10936826 0.08357244 0.10538507 0.08224837 -0.12220518 0.0046636704
-0.07792708 0.09542445 -0.055105258 0.1115173 0.0028633964 0.08231426 -0.09780381 -0.03213077
-0.10834939 -0.039299663 -0.0010524599 -0.10681119 -0.07484927 0.1202473 0.09115483 -0.0747934
0.088461965 -0.07026205 -0.05988841 -0.03435204 0.022847403 -0.10086918 -0.08193282 -0.10931384
0.10859501 -0.04142129 0.09376541 -0.10429543 -0.06502843 -0.04681718 -0.08220834 0.117345616
-0.024111785 0.07360474 0.11306201 0.023889098 -0.084326364 0.078357734 0.1068334 0.01821967
-0.065782614 0.06950878 -0.015712336 -0.10844957 0.10355401 -0.10363917 0.11160888 -0.11597733
-0.051902298 0.017106302 -0.08631649 0.10646939 0.11483349 0.10370714 -0.11547668 0.07936115
-0.08599115 -0.08701557 0.09577447 -0.06803646 -0.06441495 0.03194825 -0.043298323 0.052382916
-0.103774115 -0.023149062 0.08582779 -0.065670885 -0.051743746 -0.09542204 0.08618629 -0.055956393
-0.055963732 0.018041592 -0.08701738 0.037023176 -0.10833483 0.07357353 -0.07123051 0.0065687043
0.09142729 -0.09538028 -0.05733845 -0.0660929 0.08458426 -0.058617618 -0.0022837105 0.04675215
0.036360864 -0.0706688 0.032318126 -0.05976248 0.117504075 0.051089797 -0.079249576 0.09656176
-0.1058394 -0.0879136 -0.0013248684 0.017314566 0.052609492 -0.043274917 -0.056479666 -0.11803216
0.05757524 -0.026430948 -0.032353353 0.055755112 -0.009519862 0.06339685 -0.039686836 -0.08669688
0.070778064 0.07847674 -0.09065449 0.010077207 -0.0012881561 -0.06502998 0.11903825 0.07993977
-0.10754873 -0.031610653 0.05784704 0.075389326 -0.08701201 0.06957929 -0.0564758 0.0748733
-0.094237715 -0.021534622 0.017296433 -0.101328075 0.092690684 0.05157777 0.07346808 -0.087045364
-0.10709047 0.10370836 0.109068215 0.04230411 -0.07850357 -0.087813154 0.115282886 -0.028142953
-0.10840972 0.10079951 -0.07941909 -0.088008985 -0.09308401 -0.041933164 -0.09954195 0.0029659567
-0.106488205 0.06966609 -0.059808876 0.11074506 -0.09968599 0.078883074 0.043773536 0.02891697
0.09810496 0.0616123 0.0059171314 0.09527092 0.07600764 0.04004039 0.024783988 -0.09001969
0.013108572 0.011298881 0.09741773 0.120509855 -0.12424071 -0.11869953 0.110584505 -0.102135934
-0.08915814 -0.06909501 0.11706693 0.06087799 0.08760489 -0.080875464 -0.115743235 0.080451034
00000000: 1de6 063d 5e6c 913c 3762 3a3d 07da c43d
00000010: 4f60 c53d 0a9a d8bd d8a0 41bd 55d4 ac3d
00000020: a49a b6bd 0dce 613a ee40 ecbc 315a 423d
00000030: 43ff 5b3b 3134 cd3d 64d8 87bd 2c74 4bbd
00000040: b36e bb3d 541f 883c 3d36 36bd c0e7 d43d
00000050: ebb5 993d beaf e9bd e0b5 ec3d 6393 d5bd
00000060: be5f 903d feda c2bd 8854 c33d a3da 85ba
00000070: 2fd1 023e 415e 8dbd bfb4 edbd 615d e6bd
00000080: a0f8 923d 11d7 bcbd 9fd6 8cbd 9e68 82bc
00000090: 6086 23bd 4708 713c bfa3 10bc 2904 8e3d
000000a0: 18cc c7bd 9946 98bd 772d 3e3d 87b0 ea3d
000000b0: a850 4e3d b826 d5bd d97b 3cbd 3709 aa3c
000000c0: 9445 fdbd 95c9 b1bd 2de6 e5bd e3fd 2f3d
000000d0: 2c72 42bd 76bb cd3d f827 ba3c 8e03 c3bd
000000e0: b009 823d e0f4 50bd ea85 32bd 7272 8fbd
000000f0: 60bb 14bd fc8f d23d edf9 58bd 80ee d6bd
00000100: 8b78 7e3d 05eb cfbd 77fc dfbd 0728 ab3d
00000110: 21d4 d73d d571 a83d b646 fabd b4d1 983b
00000120: 3c98 9fbd e56d c33d 0db6 61bd 2f63 e43d
00000130: d2a7 3b3b 6194 a83d 5d4d c8bd 8e9b 03bd
00000140: 49e6 ddbd aff8 20bd b2f2 89ba d3bf dabd
00000150: 934a 99bd 3744 f63d 62af ba3d 482d 99bd
00000160: 8c2b b53d 8de5 8fbd 8d4d 75bd bab4 0cbd
00000170: 7a2a bb3c 8094 cebd 65cc a7bd efdf dfbd
00000180: 1067 de3d 5fa9 29bd 1408 c03d d898 d5bd
00000190: a02d 85bd 5fc3 3fbd d95c a8bd e652 f03d
000001a0: 1486 c5bc 15be 963d 0e8d e73d 12b3 c33c
000001b0: 4db3 acbd 057a a03d 78cb da3d 6b41 953c
000001c0: 09b9 86bd 9f5a 8e3d 28b7 80bc cf1a debd
000001d0: 2014 d43d c640 d4bd 3293 e43d 8685 edbd
000001e0: 8197 54bd 8422 8c3c b3c6 b0bd a00c da3d
000001f0: d22d eb3d 6964 d43d 0a7f ecbd 1988 a23d
00000200: 211c b0bd 3835 b2bd 6825 c43d b356 8bbd
00000210: fceb 83bd 2bdc 023d 9559 31bd 788f 563d
00000220: 8687 d4bd 1aa3 bdbc 7bc6 af3d 757e 86bd
00000230: 40f1 53bd a16c c3bd 7082 b03d 8832 65bd
00000240: 3a3a 65bd f6cb 933c 2b36 b2bd 9da5 173d
00000250: a7de ddbd b8ad 963d 4de1 91bd 493e d73b
00000260: 3b3e bb3d bc56 c3bd b9db 6abd b75b 87bd
00000270: 833a ad3d 0719 70bd 4eaa 15bb 2f7f 3f3d
00000280: 21ef 143d ceba 90bd 0360 043d 81c9 74bd
00000290: faa5 f03d 8943 513d 9a4d a2bd 2cc2 c53d
000002a0: 54c2 d8bd 0c0c b4bd 35a7 adba 47d7 8d3c
000002b0: 0d7d 573d 0a41 31bd 3957 67bd d8ba f1bd
000002c0: 04d4 6b3d b785 d8bc f384 04bd 795f 643d
000002d0: 32f9 1bbc 35d6 813d aa8e 22bd 228e b1bd
000002e0: 17f4 903d 6ab8 a03d 10a9 b9bd df1a 253c
000002f0: 59d7 a8ba 702e 85bd 53ca f33d 76b7 a33d
00000300: 8242 dcbd 2c7a 01bd 05f1 6c3d b865 9a3d
00000310: 5a33 b2bd 967f 8e3d 2b53 67bd 2c57 993d
00000320: b4ff c0bd 6069 b0bc 40b1 8d3c 1885 cfbd
00000330: 9dd4 bd3d 3643 533d 6f76 963d d744 b2bd
00000340: 4052 dbbd 0c65 d43d 285f df3d 1347 2d3d
00000350: 7bc6 a0bd 62d7 b3bd 6f19 ec3d 0d8c e6bc
00000360: ea05 debd f96f ce3d 7aa6 a2bd 0e3e b4bd
00000370: d4a2 bebd 1cc2 2bbd a6dc cbbd 7f60 423b
00000380: 7d16 dabd 18ad 8e3d 27fa 74bd 4ece e23d
00000390: 2b28 ccbd 738d a13d e14b 333d 48e3 ec3c
000003a0: 41eb c83d 2e5d 7c3d 7fe4 c13b 661d c33d
000003b0: e5a9 9b3d 6401 243d ca07 cb3c 3e5c b8bd
000003c0: 56c5 563c f11e 393c f282 c73d dfcd f63d
000003d0: ea71 febd bd18 f3bd 217a e23d a52c d1bd
000003e0: 8b98 b6bd af81 8dbd c9c0 ef3d 335b 793d
000003f0: 316a b33d 09a2 a5bd ca0a edbd 83c3 a43d

bias f4 [3]
0.021790504 -0.013149872 0.041092873
00000000: 0082 b23c 9072 57bc 0051 283d
