models/classifier_best.pth (torch, 5093 bytes, 2 tensors)

weight f4 [3, 256]
000000 39 b7 9f 3e 1c 6d 10 3e b1 28 5b be 70 e3 c2 3d
       0.31194475 0.14104122 -0.21402241 0.095160365
000010 76 a5 64 3d 20 65 07 be 5a 0f 99 3e 38 32 70 3e
       0.05582186 -0.1322217 0.29894525 0.23456657
000020 e4 7c d2 3d be d0 ae 3c 57 d3 7f 3d c4 75 b7 bc
       0.10277727 0.02133977 0.06245741 -0.022395022
000030 aa 98 10 3e 9b ea bd bd 0d d6 5d be d0 a3 84 be
       0.14120737 -0.09273263 -0.21663685 -0.2590623
000040 12 19 31 3e 7a 6e da 3d d2 4b 49 be 4a f0 37 bd
       0.1729472 0.10665603 -0.1965783 -0.044906892
000050 c8 5a 2b 3c 3a 3a d0 3d 93 e3 a1 3c d7 fc 6e 3e
       0.010458656 0.10167356 0.019761836 0.23338638
000060 06 04 6c bd 01 32 86 be 0f bd ab bc 49 03 bf bd
       -0.057621025 -0.26210025 -0.020964174 -0.093267985
000070 d5 99 14 be d1 b3 f2 bd 53 b6 d4 3c 96 6f a7 bb
       -0.14511807 -0.118507035 0.025965845 -0.0051097376
000080 c0 98 f4 3c f8 fb 81 3d 1b de 4d be 13 a1 9b bd
       0.029857993 0.06346887 -0.20104258 -0.07599082
000090 95 ef 9e 3e ad 9d 32 be 1b c0 dc 3a 4a ff 05 be
       0.31042162 -0.17442961 0.001684192 -0.13085666
0000a0 de 85 1f bd cf 27 6c bc 55 d8 26 3d 54 56 7e 3e
       -0.038946025 -0.014413788 0.040733654 0.24837619
0000b0 2e e3 de bd 3d c4 81 3e 08 6a ea 3c d4 4b 6b bd
       -0.10883175 0.2534503 0.028615013 -0.057445362
0000c0 95 15 30 3e 02 4a 9b be c4 11 d7 bd 17 43 98 bc
       0.17195733 -0.303299 -0.105014354 -0.018586678
0000d0 1a 48 f5 3d 3f db 9b 3b 20 0d 08 be 8a f6 91 3e
       0.11976643 0.004756361 -0.13286257 0.28508407
0000e0 46 bb a9 3c 8d 01 c0 3d 51 5c dc bb f2 6d 4f 3c
       0.020719182 0.09375296 -0.006724872 0.01266049
0000f0 6b 6d d2 bd 94 d6 f7 3c 21 6a fe bd 7b b7 9c bd
       -0.10274776 0.030253686 -0.12422586 -0.076521836
000100 97 ea f7 3d 21 20 85 3c b4 15 27 bd 17 96 a2 bc
       0.12105291 0.016250672 -0.040792182 -0.019846959
000110 4d 1f 8b bc 37 eb ea 3c ac 28 8f 3d 13 90 81 3e
       -0.016982699 0.028676612 0.069901794 0.25305232
000120 b7 02 e3 bd 0e 57 82 bd 31 69 00 3e 22 8c 5e bc
       -0.11084502 -0.063642606 0.12540127 -0.013583215
000130 02 5d 0c 3e 80 0d 5c be 08 97 c7 bd c5 23 8a be
       0.13707355 -0.21489525 -0.09745604 -0.26980415
000140 02 5c 97 3d 2e d0 17 be d8 13 02 be 5f 66 09 bd
       0.07390596 -0.14825508 -0.12702882 -0.033544894
000150 6a 2e 9f be 83 13 c8 bd 6d 77 a3 be 5a 30 49 bd
       -0.310901 -0.097693466 -0.31927052 -0.049118377
000160 99 45 a4 bd 69 97 5b 3d 83 c7 07 bb 28 93 39 3d
       -0.08021087 0.053611193 -0.0020718283 0.045306355
000170 25 d1 97 3d e0 fa 55 be 53 c0 68 bc 82 6c ee 3c
       0.07412938 -0.20896482 -0.01420601 0.029104475
000180 7c 9e be 3d 9c b3 b3 3c 86 9e b2 3a 11 28 03 be
       0.09307572 0.02193623 0.0013627566 -0.12808253
000190 07 33 70 bd 75 33 0b 3e 3e 22 43 3e 50 ae fe 3d
       -0.058642413 0.13593848 0.19056031 0.12435591
0001a0 8c df ca bc f5 d3 09 bc e5 19 5b be ad a4 01 3e
       -0.024764799 -0.008412351 -0.21396597 0.12660475
0001b0 3e bb 87 bd 2b c0 14 3e 25 d4 26 3c a4 92 8f 3c
       -0.066275105 0.14526431 0.010182415 0.017525978
0001c0 8a 82 5d 3d d0 78 32 be 98 20 ae 3d d1 1f 53 3e
       0.05407957 -0.17428899 0.085023105 0.20617606
0001d0 b5 6b 8d 3c 82 b8 b6 bc 8b 52 24 3e ca d5 97 3e
       0.017263273 -0.022304777 0.16047113 0.29655296
0001e0 07 92 af 3b 38 55 19 3d 1b 3c ca 3b 4b 26 89 be
       0.005357984 0.037434787 0.006171716 -0.26787028
0001f0 9e 6d 2e be 81 47 24 3e 14 91 3a 3c 39 3c 7e 3e
       -0.17034003 0.16042902 0.011387128 0.2482766
000200 a2 86 e7 3d 61 db 63 3d c7 5f 1e 3d a5 41 6a 3e
       0.11304976 0.055629138 0.03866556 0.22876604
000210 0a a0 bb 3d ff 55 8c bc 53 fb b8 be 6e 41 9f 3e
       0.091613844 -0.01713085 -0.36129245 0.31104606
000220 86 1a 37 3e 33 99 87 3c fa d6 1d 3e 7a 1d f7 bd
       0.17881212 0.016552543 0.15414038 -0.12066169
000230 ca b5 30 3e 93 21 9d 3d 20 e8 a8 3c ec 92 8c 3b
       0.17256847 0.076724194 0.020618498 0.0042899754
000240 94 45 a4 bd 74 7e 1f be 86 be b1 3a b3 1c 76 3e
       -0.080210835 -0.15575582 0.0013560809 0.24034385
000250 bb 40 ea 3c 6c 34 1f 3e 10 8a 94 bd ea da 90 bd
       0.028595319 0.15547341 -0.07252896 -0.070730045
000260 ef 82 56 3d 6f 67 8a 3e e2 91 a1 3c ca 9f 3f be
       0.05237096 0.2703204 0.019722883 -0.18713298
000270 85 2a 5d 3e 61 ae 95 3e eb 10 a9 3e 74 7e ce bc
       0.21598251 0.29234603 0.3302072 -0.025206782
000280 9e f2 fc 3d 86 df 61 bd 90 3c 98 3d f3 11 56 be
       0.12350963 -0.05514481 0.074334264 -0.20905285
000290 ac ee f2 bd a5 ab ef 3c 3f 3e 40 3e d1 01 8a 3e
       -0.11861929 0.029256651 0.18773745 0.2695451
0002a0 79 dc 93 bd 11 d0 1b bd be c6 a2 3d 48 83 00 3e
       -0.07219786 -0.038040224 0.07948063 0.1255008
0002b0 1e ad c2 bd e7 a9 e8 3c dc c8 8a 3e 7c 76 5d 3c
       -0.09505676 0.028401328 0.2710637 0.013517018
0002c0 f5 ac c2 3d ee 8a 88 be 1f ca 1c 3e c6 3d 67 3e
       0.09505645 -0.26668495 0.15311478 0.22582158
0002d0 54 65 a4 bc 9b 57 54 bc 6b 8f 83 bd a9 14 b8 3d
       -0.020067848 -0.01296034 -0.06423839 0.089883156
0002e0 df fe ff 3c f2 86 42 3e 90 51 7f 3c f6 5c ac bc
       0.031249462 0.1899679 0.015583411 -0.021040421
0002f0 ad af 35 3e 01 91 b0 bd 37 c3 80 be 4c 08 bc bd
       0.17742796 -0.08621407 -0.25148937 -0.0918127
000300 1f 7e 29 be 05 76 dd bd f6 46 f3 3d 2c 3f a4 3d
       -0.16552018 -0.10813526 0.11878769 0.080198616
000310 07 1d 1d 3e a7 1b dc bd ef 2f 7b 3d 60 8f 1e be
       0.15343104 -0.10747462 0.06132501 -0.1548438
000320 5b d6 8b bd fd 13 1f be fd a8 ea 3b cb ef 02 3e
       -0.068279944 -0.15534969 0.0071612583 0.12786786
000330 59 2a 31 bd a7 34 8d 3d 39 ab 68 be 50 f4 41 bd
       -0.043253276 0.06894808 -0.22721566 -0.047352135
000340 4d 7c 2b be bd eb 8b bd 36 c1 69 be 7c ae 19 3e
       -0.16746636 -0.06832073 -0.2282761 0.15007967
000350 ff 94 f8 3c 74 54 b3 3d c5 bf 51 bd 3b dd 10 be
       0.030344484 0.087563425 -0.051208276 -0.14146893
000360 85 27 08 3e ee c9 47 bc 82 e5 7a 3d 23 d7 93 3e
       0.13296326 -0.01219414 0.061254032 0.28875074
000370 c3 d1 95 3e 21 cc cb bc 92 5e 82 3c f0 e5 db bd
       0.29261598 -0.02487761 0.015914235 -0.107372165
000380 91 ec 36 3e eb e1 90 3d ef a4 76 be 79 f6 63 bd
       0.1786368 0.070743404 -0.24086355 -0.055654977
000390 38 75 65 be 54 df 16 be 41 58 e7 bd 85 3c 8b 3d
       -0.22407997 -0.1473363 -0.1129613 0.067986526
0003a0 cc 9d e5 3c f6 af e4 bb 39 8f 3c bd 30 a4 38 be
       0.028029345 -0.006978984 -0.046035025 -0.18031383
0003b0 50 53 fa 3c f2 b9 40 3d 70 8b 01 be 49 ec b7 3d
       0.030557305 0.04705233 -0.12650847 0.08980615
0003c0 ee 60 6a be 02 14 9c 3e f8 c1 ff bd 07 1b b6 3c
       -0.22888538 0.30484015 -0.124881685 0.022229685
0003d0 7d 6f 28 3e 53 36 10 3e 77 f7 e4 bc d2 92 3b 3e
       0.1644878 0.14083223 -0.027950032 0.18317726
0003e0 53 4c 15 3d 58 2d 96 3d 76 7a 98 3d eb 22 1e 3c
       0.03644974 0.073328674 0.074452326 0.00965188
0003f0 b3 31 6b bd fd fa d9 3d 13 46 10 be 11 71 80 be
       -0.057420444 0.10643575 -0.14089231 -0.25086263

bias f4 [3]
000000 8d 3a 96 3d 98 7e 4e bd 6d ab 33 3d
       0.073353864 -0.050413698 0.043864656
