models/classifier_invariant.pth (torch, 5069 bytes, 2 tensors)

weight f4 [3, 256]
000000 f9 f9 c5 3b d2 c7 57 bd 3a cd 70 ba a5 75 e5 3c
       0.006041762 -0.052680798 -0.00091858546 0.028010199
000010 6b 54 b5 3c 9a 97 7a bd ce 08 c0 3b f8 a3 4e 3d
       0.02213498 -0.061179735 0.0058604246 0.05044934
000020 b4 8b dc 3b 0f 94 66 bd ca da 0a bd 1f 4f 3f 3d
       0.006730521 -0.056293543 -0.03390006 0.046706315
000030 e1 4a 2b bd 57 4c 45 3d 96 8f 82 3d 36 21 83 3b
       -0.041819457 0.048168506 0.06375043 0.004001762
000040 5a 39 ff bb 50 77 58 3d 0f e4 96 bd 99 59 69 bd
       -0.0077888193 0.05284816 -0.073677175 -0.056970213
000050 34 16 92 bc 94 59 99 bd 0f 22 50 3d eb 00 89 3c
       -0.017832853 -0.07487789 0.05081373 0.01672407
000060 fe e3 37 3d 49 ac 49 3d 29 6d 3c 3d 32 1f 1f bd
       0.044895165 0.04923657 0.04600254 -0.03884811
000070 7d b0 62 3c 8b 12 8f 3c 14 53 6b bd 9e e6 76 3b
       0.013836023 0.017464897 -0.057452276 0.003767408
000080 6b a5 f2 bb 5f 16 92 3d 2a 6e 90 ba a1 fd 46 3c
       -0.0074049733 0.07133173 -0.001101916 0.012145431
000090 41 6e c2 3c b4 fa 98 3c e2 46 9f 3d 55 68 85 3c
       0.023734214 0.018674232 0.07777192 0.016285101
0000a0 39 5d 65 3d 04 b5 8d bd 71 49 5f bd 21 4c 62 3d
       0.055997107 -0.069192916 -0.0545134 0.055248383
0000b0 9a 44 d2 bc a0 1e 32 3d 27 ed a5 bd 2d 80 42 bc
       -0.025667477 0.043486238 -0.08101874 -0.01187138
0000c0 34 c9 a0 3c ca 6a 47 3c 41 f0 36 bd c6 8e 95 3c
       0.019627191 0.012171457 -0.044662718 0.018256556
0000d0 dc 6d 98 bd a9 67 c0 bc 76 7c 5f 3d 21 ee 59 3c
       -0.07442829 -0.023486929 0.054562055 0.013301403
0000e0 be dc f8 3c 55 ad 92 3c f2 34 aa 3c 81 94 58 3b
       0.030378696 0.017904917 0.0207772 0.00330475
0000f0 80 a6 20 bd 40 b4 44 3d 40 d9 a5 3d 28 0d aa 3b
       -0.039221287 0.048023462 0.08098078 0.0051895566
000100 ff d3 11 bc 68 6e cc bc 69 23 33 bb a0 eb 99 bb
       -0.008900641 -0.02495499 -0.0027334339 -0.004697278
000110 99 59 24 bd 45 4e 29 3d c7 7d 37 3d ea 10 e2 3c
       -0.04012451 0.04133441 0.044797685 0.027595956
000120 e9 c5 cf 3c 84 fa 20 bd e9 d8 36 3d eb f7 07 3d
       0.025362926 -0.03930141 0.044640455 0.033195417
000130 b1 68 82 bd 20 b9 79 bc 6a f8 15 bc e1 d0 59 bd
       -0.063676246 -0.015241891 -0.009153465 -0.053177718
000140 66 70 88 3d d3 f0 89 3d 30 f8 46 3c 77 89 8e 3c
       0.06662063 0.06735387 0.012144133 0.017399533
000150 29 d8 39 bd 56 c6 a9 bb 81 fc fb bb e0 b4 2e 3d
       -0.045372162 -0.005181114 -0.007690013 0.042652965
000160 f5 a9 2a bd 0f 23 c7 3a de fe 88 bd c4 65 f7 3b
       -0.04166599 0.0015192943 -0.06689237 0.007549973
000170 32 d2 39 bb 5c 04 b8 bb 78 c9 e1 bb 0b 75 02 3d
       -0.0028354046 -0.005615754 -0.006890472 0.031849902
000180 b4 78 52 3d 4d fc 3f bd 49 28 93 bd b8 57 09 bd
       0.051384643 -0.046871472 -0.07185418 -0.03353092
000190 2f 59 09 3d f5 2f e1 bc 80 ff 8a 3c 60 e5 8a bd
       0.033532318 -0.027488688 0.016967535 -0.06782031
0001a0 03 b8 f0 bc 4c 6b c8 bc e7 07 e0 bc 64 21 73 bd
       -0.029384619 -0.024465226 -0.027347518 -0.059358016
0001b0 e2 de 35 bb 38 17 09 3d 54 c4 4c 3c 6f 59 9b bc
       -0.0027751257 0.03346941 0.01249798 -0.018963544
0001c0 1f b0 00 bd 98 ad 46 3d fd 05 9b bd 5f a9 22 bd
       -0.031417962 0.048505396 -0.075695015 -0.039712306
0001d0 6d 61 87 3d eb ec 40 bd c5 6c a6 ba 7d e9 86 bc
       0.06610379 -0.047100943 -0.0012697211 -0.016468758
0001e0 2c 1a 64 bc b2 02 c1 bc 6d fb 18 bd 88 03 41 3c
       -0.0139222555 -0.023560856 -0.037349153 0.011780627
0001f0 3b 48 b1 bc 48 72 15 bd ff e4 5f 3d 1a 37 26 3c
       -0.021640887 -0.03648594 0.054661747 0.010144973
000200 6f 23 19 bd 41 4e 1f bd c8 1a f1 3c 49 bd 99 bc
       -0.037387308 -0.038892988 0.029431716 -0.018767016
000210 bd ca ce 3c 26 d4 87 3c bd 4a d5 bb 2f 6c ae 3b
       0.025243158 0.016580652 -0.0065091536 0.005322955
000220 6d 74 f5 3c 0c 0d 5c bd ac 54 f2 bc 44 44 30 bd
       0.029962743 -0.05372338 -0.02958139 -0.043033853
000230 84 e6 aa bc ae 63 8f 3d 68 93 8c bd 82 f6 2f bd
       -0.020861872 0.07001434 -0.06864053 -0.042959698
000240 a8 48 1a 3d d8 67 36 3d 9c 03 f2 3b 34 cf 35 3d
       0.037666947 0.044532627 0.007385684 0.044387057
000250 67 47 7d 3d a5 58 e4 3c d8 ff 37 3d ec c1 bc 3a
       0.061835673 0.0278743 0.044921726 0.0014401055
000260 76 64 ee bc 27 8b ea ba a0 b4 0f bd 6a 1a 2e 3d
       -0.029100638 -0.0017894254 -0.035084367 0.04250566
000270 38 f9 22 3c a4 61 a1 3d 7c 97 74 3d 5e c3 f3 3c
       0.009947114 0.078799516 0.05971478 0.029756244
000280 19 40 72 bb 94 e6 43 bd 94 dc 87 3c d4 35 6f 3d
       -0.0036964475 -0.04782732 0.016584672 0.058400944
000290 44 15 4d 3b 15 35 7a 3d 90 ed 7f 3d 41 51 79 bd
       0.0031293193 0.06108578 0.062482417 -0.060868505
0002a0 c4 41 e6 3c e4 e2 90 bb 1b a5 1a 3d 7f 8f fa bc
       0.028107531 -0.0044215787 0.037755113 -0.030586002
0002b0 36 d3 5a bd ee f0 62 3d 9d 13 00 bd 7e e7 1d bd
       -0.053424083 0.05540555 -0.031268705 -0.038550846
0002c0 38 0d 4e bd 91 18 6e bd d7 72 cc bc 13 d7 1c 3d
       -0.050305575 -0.058128897 -0.024957104 0.03829105
0002d0 ee 0a ab bc 84 71 60 bd 39 e1 63 bb 9e 06 c7 bc
       -0.020879235 -0.054795757 -0.0034771694 -0.024295148
0002e0 7e 98 74 3d 6b 0d 40 bd 7d 62 95 bd 7e aa 50 3d
       0.05971574 -0.046887796 -0.07294176 0.050943844
0002f0 22 b3 60 bd c7 7c 15 3d 74 ad 3c 3d 25 aa e9 bc
       -0.054858334 0.03649595 0.046063855 -0.028523514
000300 44 d0 29 3d 5f c9 b4 3d 9f 40 7d bd 96 62 09 bd
       0.041458383 0.08827471 -0.061829206 -0.033541285
000310 e1 14 61 3d 45 31 34 bd a0 85 6e 3d 57 f4 74 bd
       0.054951552 -0.0439923 0.058232903 -0.059803333
000320 0a 71 de bc a0 34 53 bd 89 39 83 3d 54 f4 16 bd
       -0.02715351 -0.05156386 0.06407458 -0.036854103
000330 cf 93 c8 bc 83 a6 01 3d 44 28 4b bd ec 6c 80 3d
       -0.024484543 0.03165294 -0.049598947 0.06270775
000340 24 ae 29 bd ab 0d 2e 3d 65 85 e9 bc db 11 80 bd
       -0.04142584 0.042493504 -0.02850599 -0.06253406
000350 6c a1 74 3c 2e 01 cc 3c ce c6 aa 3d 02 44 81 bd
       0.014931064 0.024902906 0.083387 -0.063117996
000360 12 b0 06 bd cb de 8b 3c 90 39 9a 3c ba 7b a0 bc
       -0.032882757 0.01707401 0.018826276 -0.019590247
000370 06 56 01 3d bb a7 32 bd 41 20 a7 3c e2 42 50 3d
       0.03157618 -0.04361699 0.020401122 0.050845034
000380 99 5c ef 3a ed ed 9e 3b 28 31 51 bd 82 54 43 bb
       0.0018261849 0.0048501403 -0.05107227 -0.002980501
000390 0d 6e 22 3d 35 33 2f 3c 76 b5 32 bd c0 bf 89 3c
       0.039655734 0.010693361 -0.043630086 0.016815066
0003a0 0d 74 36 bd 5f 6e 84 3c bb 80 71 bd 93 5a ed 3b
       -0.04454427 0.01616591 -0.058960658 0.0072434633
0003b0 cc 44 45 bc 47 75 75 bd 7c 71 0d 3d 40 14 f3 3a
       -0.012040328 -0.059926298 0.034532055 0.0018545464
0003c0 24 b0 3b bd 85 8f 61 3d 35 1e 90 bd 55 1f 98 bd
       -0.045822278 0.05506851 -0.070370115 -0.07427851
0003d0 f0 e2 14 bd 1b 87 db bc 55 2f 8d bd 4f 65 30 3d
       -0.036349237 -0.026797822 -0.068937935 0.043065365
0003e0 bf 6e 27 3d f4 bd 62 bc f9 77 57 bc c1 9e 32 3d
       0.0408771 -0.013839234 -0.013151162 0.04360843
0003f0 58 fc 65 3c c3 b1 73 bd 07 1e 36 bd 93 61 4d 3d
       0.014037214 -0.0594957 -0.04446223 0.050141882

bias f4 [3]
000000 b0 bd 1c 3d 25 14 0a 3d 7a 75 be 3b
       0.038266838 0.033710618 0.005812344
