models/classifier_dann.pth (torch, 5093 bytes, 2 tensors)

weight f4 [3, 256]
0.02052065 -0.015257253 0.04096116 -0.034387425 -0.04634959 0.024988279 -0.0013863711 0.01887267
0.008212092 -0.03240039 0.024088508 0.01779069 -0.009312655 -0.040939838 -0.06165822 0.009072334
0.061738666 -0.028359294 0.04770244 -0.029116152 -0.05737186 -0.036242746 0.047072724 0.010907476
0.062785774 -0.018455021 0.011260479 -0.007856198 0.049853142 0.028045835 -0.022641806 -0.01895407
0.042376846 0.0100661665 -0.0145813115 -0.061489597 0.03858316 -0.03225806 0.014910917 0.05599689
0.014103263 0.04277318 0.008677921 0.021954695 0.049720924 -0.055905327 0.05071112 -0.017761111
-0.038052745 0.013282011 0.00031275887 -0.005673867 0.0040751444 0.05493403 -0.023987161 0.024732139
0.0077428883 0.00887999 0.022613298 -0.045937162 -0.060479853 0.032633595 0.06316539 0.003718515
0.024143536 0.052519802 -0.019448575 0.011317672 0.00029577402 -0.03548366 -0.03834697 -0.016987262
-0.022492168 -0.004668433 0.06095898 -0.032331925 -0.047025107 -0.047421105 -0.060188297 0.02624708
0.006829903 -0.056122962 -0.0046265833 0.038099453 0.054303642 -0.0066592456 -0.0054552956 0.042655483
0.043453086 -0.020770116 0.043206107 -0.051001213 -0.038047314 -0.02933863 0.0122265285 0.033401333
0.057261463 0.01837785 0.0034226011 0.031534247 0.024527764 0.032653444 0.003973071 0.0483624
0.048191182 -0.052516546 0.035438944 -0.027812785 -0.025393154 0.03468544 0.0358305 -0.012065531
0.04368392 0.0008413902 0.018817192 -0.03631439 -0.04914883 -0.01566949 -0.008058518 0.022408089
0.032753464 0.051221274 -0.03121348 0.02834412 0.035797898 -0.060604706 -0.0014917854 -0.019909738
0.045672342 -0.036264863 0.006784284 0.017262446 0.02200985 -0.008395818 0.051577684 0.057464097
0.044887364 -0.025175758 -0.008095426 0.007554212 0.060173955 -0.038145643 -0.03746035 0.022550417
-0.0017883986 -0.030918378 0.045163915 0.023573995 0.0037324664 0.035520226 -0.053947624 0.037523374
-0.021823166 0.023377383 -0.01339068 -0.041716315 0.06478376 0.018393034 0.05278804 0.0046234773
-0.011999723 0.04456597 0.056088116 0.015978366 -0.036373194 0.015938055 -0.05212048 0.038709905
0.05054487 -0.008776019 0.051167086 0.052987285 -0.030785466 -0.0040075155 -0.054927707 0.020624014
0.052963186 0.0058594677 0.03660949 0.0038075992 0.04521466 -0.04968481 0.04233469 0.061930206
-0.019142231 -0.05108472 0.012275944 -0.0015851988 -0.01087058 0.03995915 0.027648237 0.055368666
-0.020142253 -0.017268322 0.033122987 0.029773125 0.05642519 0.011931167 -0.037022058 0.044173148
-0.005092173 -0.01590312 0.017008547 0.02215065 0.049707808 0.029701354 -0.033647653 -0.06372779
0.02317623 -0.04596088 0.052154686 -0.010770414 0.023300705 0.042510457 -0.020435069 -0.020797607
-0.0012015003 -0.013568262 -0.011988955 -0.012941825 0.012643425 0.016073508 -0.039183855 0.005269694
0.044695202 0.019011864 0.06189911 0.007563503 0.029461691 0.03474082 0.04345666 0.024889959
-0.033399448 -0.0638487 0.028090216 0.015874106 -0.0074991486 0.015374406 -0.059547212 -0.0028469448
0.04007617 0.03497891 -0.04291966 0.013278885 0.017954385 -0.023556584 0.045800205 -0.054998092
-0.048614334 0.008413836 -0.032591596 0.04194536 -0.045503568 0.021031039 0.06259811 0.021379815
00000000: ec1a a83c 8ff9 79bc e4c6 273d d4d9 0cbd
00000010: 11d9 3dbd 38b4 cc3c e5b6 b5ba dc9a 9a3c
00000020: 038c 063c 45b6 04bd 4355 c53c c8bd 913c
00000030: 1b94 18bc 88b0 27bd 548d 7cbd 20a4 143c
00000040: afe1 7c3d c051 e8bc a263 433d ff84 eebc
00000050: c1fe 6abd 4673 14bd 54cf 403d 45b5 323c
00000060: d495 803d fc2e 97bc df7d 383c 48b7 00bc
00000070: cf32 4c3d 61c0 e53c 4f7b b9bc 9145 9bbc
00000080: 5893 2d3d 90ec 243c 74e6 6ebc 84dc 7bbd
00000090: 6009 1e3d 0721 04bd eb4c 743c ff5c 653d
000000a0: 5f11 673c ee32 2f3d d72d 0e3c 55da b33c
000000b0: 2ba8 4b3d fcfc 64bd 77b6 4f3d c07f 91bc
000000c0: 32dd 1bbd cb9c 593c c9f9 a339 d9eb b9bb
000000d0: ca88 853b 8102 613d b980 c4bc 0e9b ca3c
000000e0: 0eb8 fd3b 617d 113c 863f b93c 9b28 3cbd
000000f0: b9b9 77bd ceaa 053d db5c 813d 54b2 733b
00000100: aac8 c53c 011f 573d 9e52 9fbc c26d 393c
00000110: 1e12 9b39 5057 11bd b611 1dbd df28 8bbc
00000120: 7f41 b8bc a8f9 98bb 20b0 793d 7b6e 04bd
00000130: 669d 40bd a23c 42bd 0188 76bd 1e04 d73c
00000140: 61cd df3b 31e1 65bd 989a 97bb 2c0e 1c3d
00000150: 7f6d 5e3d cd35 dabb 56c2 b2bb 84b7 2e3d
00000160: ddfb 313d 1726 aabc e3f8 303d a6e6 50bd
00000170: 80d7 1bbd 9157 f0bc c751 483c d6cf 083d
00000180: ff8a 6a3d 258d 963c b84d 603b 0e2a 013d
00000190: 73ee c83c 9ebf 053d 8930 823b a717 463d
000001a0: 1e64 453d 971b 57bd 6d28 113d a3d7 e3bc
000001b0: 4e05 d0bc 5212 0e3d 01c3 123d 81ae 45bc
000001c0: e9ed 323d be90 5c3a 8326 9a3c 66be 14bd
000001d0: 4950 49bd 4d5d 80bc e007 04bc 2b91 b73c
000001e0: 7f28 063d 66cd 513d 69b3 ffbc ee31 e83c
000001f0: d1a0 123d a43c 78bd 0388 c3ba bf19 a3bc
00000200: ec12 3b3d 778a 14bd b34e de3b f969 8d3c
00000210: 004e b43c 9d8e 09bc 1f43 533d 795f 6b3d
00000220: d0db 373d 643d cebc ada2 04bc 5389 f73b
00000230: f778 763d 9b3e 1cbd 0670 19bd a7bb b83c
00000240: b368 eaba 8a48 fdbc ccfd 383d 401e c13c
00000250: 659c 743b a87d 113d 2ff8 5cbd 1cb2 193d
00000260: 7fc6 b2bc ed81 bf3c 9564 5bbc bade 2abd
00000270: 59ad 843d fdac 963c 4638 583d 8a80 973b
00000280: 7c9a 44bc ce8a 363d a7bc 653d 10e5 823c
00000290: 0ffc 14bd 8690 823c 497c 55bd 478e 1e3d
000002a0: 2308 4f3d 4bc9 0fbc 9494 513d 3209 593d
000002b0: cd31 fcbc 7a51 83bb e0fb 60bd b1f3 a83c
000002c0: edef 583d c700 c03b d5f3 153d ea88 793b
000002d0: 0233 393d 4d82 4bbd 2467 2d3d 87aa 7d3d
000002e0: 2bd0 9cbc 363e 51bd 0b21 493c 72c6 cfba
000002f0: 841a 32bc 35ac 233d 8e7e e23c 41ca 623d
00000300: 5e01 a5bc 4c76 8dbc f8ab 073d c5e6 f33c
00000310: 1a1e 673d f17a 433c 71a4 17bd e7ee 343d
00000320: 3edc a6bb 4347 82bc 8255 8b3c 4875 b53c
00000330: 6a9a 4b3d 4150 f33c 1fd2 09bd b783 82bd
00000340: 14dc bd3c 7a41 3cbd 27a0 553d 6476 30bc
00000350: 1fe1 be3c 721f 2e3d 7267 a7bc be5f aabc
00000360: a97b 9dba 6a4d 5ebc 526d 44bc f309 54bc
00000370: 5e26 4f3c 97ac 833c 407f 20bd 66ad ac3b
00000380: 5112 373d c5be 9b3c ec89 7d3d 43d7 f73b
00000390: a559 f13c 644c 0e3d 9cff 313d 07e6 cb3c
000003a0: dccd 08bd 1bc3 82bd 741d e63c 6a0a 823c
000003b0: 6bbb f5bb efe4 7b3c c7e7 73bd cf93 3abb
000003c0: e926 243d 0c46 0f3d 87cc 2fbd ae8f 593c
000003d0: 1315 933c bdf9 c0bc ff98 3b3d ae45 61bd
000003e0: d31f 47bd 30da 093c c47e 05bd e6ce 2b3d
000003f0: f361 3abd 4949 ac3c 7033 803d b924 af3c

bias f4 [3]
-0.036709495 -0.050715044 -0.030971188
00000000: b25c 16bd 94ba 4fbd 4ab7 fdbc
