models/classifier_dann.pth (torch, 5029 bytes, 2 tensors)

weight f4 [3, 256]
0.012326942 0.025868978 0.06935734 0.018443502 -0.06730869 0.061941035 -0.030462155 -0.005565934
0.04311158 -0.04140849 -0.072468765 0.03927017 -0.020533659 -0.005715411 0.063553765 0.027742198
-0.007531035 -0.049027786 -0.0019220322 0.04577118 0.062151514 -0.05847182 -0.05741757 0.027596956
0.01390113 -0.00068660866 -0.011383269 -0.0048906785 -0.054545213 -0.04276284 -0.008567849 -0.04039607
0.0018268222 -0.016414544 -0.048910256 0.046874225 -0.07006647 0.023441778 -0.04486947 0.05294772
0.052969664 0.05156656 -0.010449764 -0.012911947 -0.044114247 -0.0043810415 0.060499173 -0.057915106
0.014899136 0.058649458 -0.044912644 0.05505569 -0.018204315 0.018712953 -0.05404309 -0.008518093
-0.023548346 0.031868577 -0.032737643 0.012688672 -0.050031286 0.040263165 0.03782813 0.008208375
-0.059345115 -0.03861151 -0.041190412 -0.03906426 -0.022222027 -0.044709273 -0.008613318 -0.060585637
0.0010718018 0.0653401 -0.050883718 0.06086575 0.011403758 -0.081233524 -0.011027491 -0.018281253
0.05467532 0.058712784 -0.05181597 -0.019641757 0.035859656 -0.01819887 -0.013490133 0.010873773
-0.010354948 -0.02344442 -0.061025165 -0.061227527 0.037981894 0.0013834054 -0.03487719 0.039361097
0.066566944 -0.04495599 0.0016961623 -0.060552713 0.016303994 0.006860031 0.030940685 0.014110193
-0.016228894 -0.048397843 -0.015932774 0.008866761 -0.027646694 0.02754048 -0.017437592 0.06555932
-0.035120677 0.02029411 -0.055071566 -0.02579872 -0.012130282 0.04065035 0.006572683 -0.002907198
0.018027421 -0.06575153 -0.06967239 -0.031623185 -0.011426844 0.021484405 0.009936597 -0.001454231
0.015639437 0.001221875 0.050147366 -0.06635158 0.03078572 0.0007579442 -0.0070977993 -0.0315187
-0.03663589 0.0032106768 0.019198148 -0.0279576 -0.0027580939 -0.002508153 0.06120665 -0.047181003
-0.049512494 0.014195401 -0.028248081 -0.017290356 0.02632605 -0.072468795 0.021960838 0.041918494
-0.01127292 -0.056153227 -0.01765312 0.0023785864 -0.009681408 -0.019389216 0.028850058 0.05296466
-0.019139655 0.015294618 -0.057674497 0.027392656 0.02032159 0.01702576 0.00783515 -0.040540684
0.021592151 0.056307998 0.0054619145 -0.074102074 -0.05393528 -0.03423928 -0.05906281 -0.063638315
0.013542149 0.05139427 0.035609752 -0.004428567 0.024344712 0.0038742495 0.036911234 0.0006140154
-0.013865862 -0.016294705 -0.020577904 -0.006836447 0.007112157 -0.03474313 -0.040787958 -0.06258231
0.0013461381 -0.0015081962 -0.0062662465 -0.042746413 -0.0048726057 -0.038989704 -0.027630748 0.042533256
-0.045604162 -0.026211007 0.021852026 0.018362936 0.05730379 0.006510154 -0.06550078 -0.006617942
0.057231728 0.04974687 -0.028938815 -0.03893813 -0.022468083 -0.044409323 0.034347605 0.04863677
-0.031585865 0.0052745305 0.018970722 -0.012906164 -0.034596212 0.020674586 -0.04591382 -0.007377741
0.036375284 0.01892821 -0.03673241 0.05101134 -0.0062404354 -0.053109515 -0.049932085 0.041590415
0.00038784978 0.039649356 -0.033525594 -0.033005975 0.014984533 -0.04159095 0.030049318 0.05417585
0.012773422 0.03446772 -0.028912395 -0.03686017 -0.06108465 -0.02201301 0.006057247 0.05947127
-0.029927302 0.04784681 -0.0024086544 0.006169519 -0.040484447 0.01296579 -0.049152415 0.026479654
00000000: f1f6 493c 2eeb d33c 390b 8e3d d416 973c
00000010: 23d9 89bd e2b5 7d3d c58b f9bc 7062 b6bb
00000020: c595 303d f39b 29bd 816a 94bd c2d9 203d
00000030: 3436 a8bc 5848 bbbb 7a28 823d 9b43 e33c
00000040: e7c6 f6bb 5cd1 48bd b3ec fbba 907a 3b3d
00000050: 9692 7e3d 2680 6fbd b02e 6bbd 0313 e23c
00000060: 91c1 633c 87fd 33ba e480 3abc fc41 a0bb
00000070: cd6a 5fbd 1628 2fbd 2a60 0cbc 5976 25bd
00000080: fb71 ef3a cb77 86bc 1f56 48bd 30ff 3f3d
00000090: 027f 8fbd f908 c03c 0dc9 37bd b5df 583d
000000a0: b8f6 583d 7537 533d 7d35 2bbc a28c 53bc
000000b0: 24b1 34bd d78e 8fbb fbcd 773d 6438 6dbd
000000c0: 811b 743c 6a3a 703d 52f6 37bd 1382 613d
000000d0: 3721 95bc e84b 993c 4a5c 5dbd 798f 0bbc
000000e0: 76e8 c0bc a088 023d e817 06bd 26e4 4f3c
000000f0: 9bed 4cbd fdea 243d abf1 1a3d 6c7c 063c
00000100: dd13 73bd 1a27 1ebd 47b7 28bd d801 20bd
00000110: f80a b6bc 1221 37bd e01e 0dbc a528 78bd
00000120: b37b 8c3a 08d1 853d 726b 50bd 5d4e 793d
00000130: d4d6 3a3c c35d a6bd a6ac 34bc 91c2 95bc
00000140: 3af3 5f3d d17c 703d fc3c 54bd c0e7 a0bc
00000150: 93e1 123d cc15 95bc b805 5dbc e927 323c
00000160: cda7 29bc 830e c0bc 86f5 79bd b7c9 7abd
00000170: e792 1b3d 6253 b53a 62db 0ebd 1a39 213d
00000180: 4054 883d c623 38bd c351 de3a 1f06 78bd
00000190: f48f 853c 1cca e03b 5277 fd3c 702e 673c
000001a0: 75f2 84bc d13c 46bd 7385 82bc e445 113c
000001b0: 527b e2bc 939c e13c 48d9 8ebc f743 863d
000001c0: b3da 0fbd d53f a63c b992 61bd d657 d3bc
000001d0: 17be 46bc fb80 263d a95f d73b b086 3ebb
000001e0: 3eae 933c bda8 86bd 66b0 8ebd 5087 01bd
000001f0: a837 3bbc 1000 b03c 1ccd 223c e59b beba
00000200: 471e 803c 5227 a03a 5367 4d3d 56e3 87bd
00000210: 5632 fc3c c6b0 463a a894 e8bb c119 01bd
00000220: 840f 16bd 386a 523b 6f45 9d3c 5607 e5bc
00000230: 23c1 34bb d35f 24bb d3b3 7a3d de40 41bd
00000240: 9dcd 4abd d493 683c 8568 e7bc 81a4 8dbc
00000250: baa9 d73c 856a 94bd 37e7 b33c bab2 2b3d
00000260: 0eb2 38bc ed00 66bd 479d 90bc 0fe2 1b3b
00000270: c59e 1ebc 22d6 9ebc f556 ec3c 79f1 583d
00000280: c4ca 9cbc 4796 7a3c 183c 6cbd 9066 e03c
00000290: 7779 a63c 9b79 8b3c 005f 003c fd0d 26bd
000002a0: 06e2 b03c 37a3 663d dcf9 b23b d4c2 97bd
000002b0: 3deb 5cbd 7d3e 0cbd d8eb 71bd ce54 82bd
000002c0: e4df 5d3c cc82 523d 88db 113d 831d 91bb
000002d0: 906e c73c 1fe7 7d3b 3c30 173d e0f5 203a
000002e0: a42d 63bc 797c 85bc fe92 a8bc 4604 e0bb
000002f0: 190d e93b d04e 0ebd 4611 27bd 272b 80bd
00000300: e670 b03a abae c5ba 1655 cdbb dd16 2fbd
00000310: 61aa 9fbb abb3 1fbd e159 e2bc 5a37 2e3d
00000320: 6ecb 3abd 77b8 d6bc 0503 b33c de6d 963c
00000330: 61b7 6a3d 2153 d53b 4625 86bd 52db d8bb
00000340: d16b 6a3d 60c3 4b3d 1811 edbc 977d 1fbd
00000350: fc0e b8bc 8de6 35bd 13b0 0c3d 5a37 473d
00000360: 2e60 01bd f8d5 ac3b 7d68 9b3c 6074 53bc
00000370: c2b4 0dbd c05d a93c 2110 3cbd fac0 f1bb
00000380: 40fe 143d 550f 9b3c b974 16bd 44f1 503d
00000390: 917c ccbb 5d89 59bd 9685 4cbd b65a 2a3d
000003a0: 5158 cb39 5d67 223d 2252 09bd 4631 07bd
000003b0: b081 753c 465b 2abd fd29 f63c 7fe7 5d3d
000003c0: 9d47 513c 062e 0d3d b0d9 ecbc b1fa 16bd
000003d0: e633 7abd a154 b4bc df7b c63b 2598 733d
000003e0: 1a2a f5bc 04fb 433d 84da 1dbb ad29 ca3b
000003f0: 05d3 25bd 776e 543c 0b54 49bd dceb d83c

bias f4 [3]
-0.013954607 -0.04147094 -0.042385373
00000000: dda1 64bc 6fdd 29bd 499c 2dbd
