models/classifier_best.pth (torch, 5029 bytes, 2 tensors)

weight f4 [3, 256]
000000 86 92 04 bd fd 0d 00 bd ab 75 c8 bd 95 70 1c be
       -0.0323663 -0.03126334 -0.097880684 -0.15277322
000010 bc 26 79 bd f8 c2 00 3d 60 0a 0b 3c 34 eb 2e 3d
       -0.060827956 0.031435937 0.00848636 0.042704776
000020 03 bd d1 bd 62 10 43 bd 7c 95 0b 3e be e4 21 3e
       -0.10241129 -0.047623046 0.13631243 0.15809914
000030 f2 50 05 3d 29 ad df 3d 89 d7 19 be bf 2d 80 3d
       0.0325479 0.109216996 -0.15023626 0.062587254
000040 81 62 03 bd d9 89 c3 bd 32 65 09 bd a2 d8 39 3b
       -0.032076363 -0.09547777 -0.033543773 0.0028357883
000050 83 b9 d2 bd 2f b4 fc bc d1 23 f5 3b f0 61 10 3d
       -0.1028929 -0.030847637 0.0074810763 0.03524965
000060 4f 15 18 3e 5b 12 25 be b6 de f6 3d 34 82 a0 bd
       0.14851879 -0.16120283 0.120541975 -0.07837334
000070 7d 9c 20 be d1 10 ab bd 0c 4a 0d 3e 6a 94 9d bd
       -0.15684696 -0.08352817 0.13797778 -0.07694323
000080 95 20 12 be 27 53 26 be 93 19 ba 3d 14 90 4d bd
       -0.14270242 -0.16242658 0.09086909 -0.05018623
000090 89 73 02 bd f4 5c 63 3d 4f b7 05 be 66 13 1c 3d
       -0.031848464 0.05550857 -0.13058208 0.038104437
0000a0 2a 8a 06 be 11 3a ce bd 1a 19 da bc 4b 77 9d bb
       -0.13138643 -0.10069669 -0.026623297 -0.0048054806
0000b0 36 f2 c0 3d 40 cd 82 bb c3 d0 30 3d bb 6d a7 bd
       0.09421198 -0.003991753 0.04316784 -0.08175226
0000c0 95 6f 1c bd 0a 03 ee 3b 5a d2 a6 bd 7f 00 9c bd
       -0.03819235 0.007263546 -0.0814559 -0.07617282
0000d0 7a af 05 3e 24 d4 a9 3d 52 28 9d bd d3 a8 73 bd
       0.1305522 0.08292416 -0.07673706 -0.059487175
0000e0 2b c7 91 bb 24 0f 41 3d aa 92 e0 3d b0 ef 00 3d
       -0.0044487915 0.04713358 0.10965474 0.031478584
0000f0 06 4e d2 3c 69 c5 c4 bd a4 72 09 3e cc 92 b7 3d
       0.02567197 -0.096079655 0.13422638 0.08963546
000100 83 b4 41 3d 7e 5f 70 3d f3 90 ac bc 18 72 d4 3c
       0.04729129 0.05868482 -0.02106521 0.02593331
000110 d4 ce 0e be b7 24 a0 bb 97 0f bf 3d 1e de d4 bd
       -0.13946086 -0.0048871893 0.093291454 -0.10393928
000120 17 59 70 3d 8a 8c d4 bd 1e 52 b1 3d ea 58 e1 3b
       0.058678713 -0.10378368 0.08658241 0.0068770545
000130 4c ab 80 bd be ea cb bc a3 67 e0 3d e0 69 0b bd
       -0.06282672 -0.024892207 0.10957267 -0.034036517
000140 17 7a 73 3d 6b db 2f 3e 1d 73 07 3e a7 90 c0 bd
       0.059442606 0.17173545 0.13227506 -0.0940259
000150 31 3b 8b bc ac d2 34 bd 0c 7f 58 3e 7e 09 62 bd
       -0.016995998 -0.044146225 0.21142215 -0.055184834
000160 a2 d1 01 3e 24 4d 8f 3d 42 3f dd bd aa 4a 89 3d
       0.12677625 0.06997135 -0.10803081 0.06703694
000170 aa 53 d5 bd de 21 99 bd 6e ea b2 3d aa 53 17 be
       -0.10416348 -0.07477163 0.0873612 -0.14778009
000180 17 90 14 be 33 40 af 3d 93 8f bf bc 6a 16 1e bd
       -0.14508091 0.08557167 -0.023383891 -0.038595594
000190 cb 31 dd 3d 7e 7a ea 3d 30 10 19 3e 10 65 06 3d
       0.10800513 0.11449145 0.14947581 0.032811224
0001a0 c8 ce 08 3d 02 50 66 3c 74 2c bf 3c 85 4a 16 3e
       0.033400327 0.014057161 0.023336627 0.14676864
0001b0 42 0e c3 bb 69 01 f1 3d d4 44 bb 3d 9b a7 b7 bd
       -0.0059526274 0.11767847 0.09143987 -0.08967515
0001c0 38 e5 13 bd c4 e2 84 bd 73 75 21 3c c7 65 b9 bd
       -0.036107272 -0.064885646 0.009854662 -0.090526156
0001d0 2f b5 23 bc 2b 30 de bd 2e 2e b9 bd f0 7d 6d 3d
       -0.009991928 -0.10849031 -0.09042011 0.05798143
0001e0 06 99 ed bd 21 25 12 3e 36 28 3d 3e 68 80 89 3d
       -0.116014525 0.14271976 0.1847237 0.06713945
0001f0 60 91 37 3e 69 bd ab 3d 3d 5f e3 3d cf a6 49 bd
       0.1792655 0.083857365 0.1110215 -0.049231347
000200 0d 91 98 3d 2e cc 31 bc 1b d2 f7 bc 8d e0 c4 3c
       0.07449541 -0.010851903 -0.030251553 0.024032855
000210 4f 62 43 bd 8a f8 f6 bc 2c 32 86 bd e5 c4 c8 bd
       -0.047701176 -0.03014781 -0.06552538 -0.0980318
000220 f9 ff 3b bb de 7e 2f bd b9 13 78 bd ed 4a ba bd
       -0.0028686507 -0.0428456 -0.060565684 -0.09096322
000230 e5 0f fa 3d d9 1d 2d 3d cb 66 69 bc 85 10 67 3d
       0.12210063 0.042264793 -0.014245699 0.05641224
000240 6f 95 f0 39 d2 56 2f 3e 1b 02 2c bc 33 cd e5 bd
       0.00045887704 0.17122963 -0.010498549 -0.11220779
000250 fc 54 82 bd 66 30 9c 3d 0a 8a ef 3d d7 31 0b 3e
       -0.06363866 0.07626419 0.11696251 0.13593231
000260 e7 d9 1c 3b 53 45 0c be d9 ad 42 3e 19 46 8e 3d
       0.002393359 -0.1369832 0.1901163 0.06946964
000270 2a 24 76 b8 82 6a 00 3e f6 24 21 3d b4 d2 0c 3d
       -5.868465e-05 0.1254063 0.03934189 0.03438063
000280 0a b1 af 3c 20 59 6d 3d 82 0d 71 bd 8e 03 12 bd
       0.021446723 0.057946324 -0.058850773 -0.03564792
000290 0d a8 c7 3d 51 bd bd bd 87 69 b7 bd 9b 07 0e 3e
       0.0974885 -0.09264625 -0.089556746 0.13870089
0002a0 a1 ba 10 3e 74 fe fe 3d 9c 19 15 3e 3e 4b 6b 3c
       0.14133693 0.12450877 0.1456055 0.014361201
0002b0 6e 87 7d 3d 51 57 d9 bd 80 83 60 3d 23 03 11 be
       0.061896734 -0.106123574 0.05481291 -0.14161353
0002c0 af 72 cc bc 61 b3 5f bd d9 4d e0 bd 44 2a f4 3b
       -0.02495703 -0.05461443 -0.10952348 0.0074513275
0002d0 87 b1 84 bd 22 72 8f 3d 6e c7 87 3e 4d 7f 28 be
       -0.06479173 0.07004191 0.2651934 -0.16454811
0002e0 52 e4 0a be 94 c1 3b 3e 5a 3d dd 3c 36 8c 0e 3e
       -0.1356366 0.18335563 0.027006794 0.13920674
0002f0 a1 55 e1 3d 42 12 1e bd 7c 2d b9 bd 33 14 87 3d
       0.110026605 -0.03859163 -0.090418786 0.065956496
000300 64 ae 06 3d f9 d3 d4 3d 06 e8 97 3d 2d bd cd bc
       0.032881156 0.10391993 0.07417302 -0.02511462
000310 dc dc 04 3e 52 c9 a9 bd f7 cf da 3b 11 01 09 3e
       0.12974876 -0.08290352 0.0066776234 0.13379313
000320 c8 79 47 be 29 b0 b1 bd 7e 57 7a bd 87 05 c3 bd
       -0.1948005 -0.08676178 -0.061118595 -0.09522539
000330 89 4c ca 3d 88 d1 21 bd 33 70 c3 bd 1b 02 af 3c
       0.09877879 -0.039506465 -0.09542885 0.021363309
000340 3a b8 93 3d f1 3d 1d 3d 43 87 f4 3d a8 62 a8 3d
       0.07212873 0.03838915 0.119398616 0.08221942
000350 0e 80 af bc d3 c2 1e 3e e4 db e0 3d f7 2f e3 3b
       -0.021423366 0.15504007 0.10979441 0.006933208
000360 9e 65 88 bc ca 58 ba bc cb e8 7c 3d 57 f3 a9 3c
       -0.016650017 -0.022747416 0.061745446 0.020745916
000370 0c 99 ea 3c 3e dd 18 be d6 0f ac 3d e0 04 24 3d
       0.028637432 -0.14928147 0.08401458 0.04004371
000380 aa 18 20 3c 1e 17 e0 3d 0d 8b 17 bd 97 dc 96 bc
       0.009771505 0.10941909 -0.036997844 -0.018415732
000390 c0 a2 04 3e 84 18 13 3d 0c 50 e0 3d 3f 6c f4 3a
       0.12952709 0.03591205 0.10952768 0.0018647983
0003a0 e8 5f 4c 3c 5d 68 24 ba d1 fc b8 bd 5f 97 22 be
       0.012474038 -0.0006271655 -0.09032596 -0.15878056
0003b0 3c e9 75 3d 8e e1 db bc 79 d8 24 3e 67 10 f3 3d
       0.060036883 -0.026840951 0.16098203 0.11868363
0003c0 83 04 9e 3d 5f 45 8a 3d ca ef 3b 3e a8 f6 47 3d
       0.07715704 0.06751513 0.18353191 0.048819214
0003d0 e3 1f 90 3d 98 36 83 3d 91 47 f3 bd 8a 62 0b 3e
       0.07037332 0.06406897 -0.118788846 0.13611808
0003e0 29 ef 49 3b 9f 67 b4 3d 3c 54 97 3d 76 c1 29 3e
       0.0030812717 0.08808827 0.07389113 0.16577706
0003f0 03 8e 1f bd 36 8f b4 bd 35 b1 14 3c 3a ff 3a be
       -0.038953792 -0.08816378 0.009075453 -0.18261424

bias f4 [3]
000000 0c bd 39 3c f6 3f 11 3d 27 48 57 3d
       0.011336576 0.03546139 0.052559044
