models/classifier_dann.pth (torch, 5093 bytes, 2 tensors)

weight f4 [3, 256]
00000000: d33f 5b3d 8326 7a3d b554 a73d 6298 f3bc
00000010: 3fcf 9ebd d065 46bd bc94 00bd ab7d c4bc
00000020: 08c5 2dbd 7343 2f3d 7c8a 6c3d dc82 7fbc
00000030: 6285 513c 138d ef3c e349 023d a1ce 5c3d
00000040: 9c90 883d 501a 9f3d 9a52 b1bc 253b 803d
00000050: 7504 57bc d8e0 6bbd 138a 97bb 04e8 22bd
00000060: 2bdd 903d 254a 6e3d 794c cd3c d55a ce3c
00000070: 2fef 053d 75d5 e53b 43e5 0b3c cb0f 893d
00000080: 5ac7 6ebd d75f 90bd edf7 7b3d f4c4 323d
00000090: 461f 9b3c d49b dc3c a94b 673c 8d3e cfbb
000000a0: 4eac 21bd 0450 43bd 6804 c6bb 95ca 71bd
000000b0: 556d a0bd f97e a4bc acdf 0c3d d628 0d3c
000000c0: 2db3 783d 5cc3 d83c b97b 283d ad72 c53c
000000d0: 7927 a23d 4ae0 5bbd 6acb 6c3d 89d6 85bd
000000e0: 6d9e a33d bc55 8d3d 41fd 693d f9e2 93bd
000000f0: d73e 84bd af91 863c 349e 673c 99a9 fdbc
00000100: d99a 793d ddec 423d e233 55bd b1ff a23d
00000110: 076d 8bbc 99d2 923d 03f0 083d aeb8 833d
00000120: 2f8b 9cbc 39b5 153d 1334 9cbd ed2e 853d
00000130: d2f0 8c3c e916 e6bb c282 a93b e887 3ebc
00000140: 826b 91bd a10f 53bc 2399 a73c a06e 65bd
00000150: 3d6c a7bc 6895 7e3d f221 a8bd 7a97 6b3c
00000160: 4109 993d 1796 1cbd 519e 483d 188c 153d
00000170: 52d6 1cbd c127 203d fd2f a2bc a549 3abd
00000180: a22c 893d 29ef a2bd 8a7b 753d 2eaf 4ebd
00000190: dcb8 00bb 859e 0e3d c981 5f3c e882 103d
000001a0: a3d0 9ebd 1c62 82bc 9abc 0c3d d460 773d
000001b0: 7dd2 803c 9366 8e3c cac6 40bd 2fb5 69bd
000001c0: ff3a 0abd 91ee 853d 41f4 8d3d e5e9 65bc
000001d0: 2c1f d73c 9643 ff3a 5452 54bd 9eab 893d
000001e0: 406a 0b3d f658 5cbd cc64 7fbd 8fb3 993c
000001f0: 6a37 953c 1662 0cbd f072 2ebd 7001 8cbd
00000200: 59cb 0d3d 3140 9a3c 401c 5d3d 3b5b 34bd
00000210: 4c1e 0e3d 331c 86bd c6f0 0dbd cd62 953c
00000220: 4f22 693d 2d9f 863d b0b5 fdbc e1a7 303d
00000230: 751a 4f3d 059e 2fbd 8245 45bd 95ff 76bc
00000240: aae2 85bd c5df 84bd 99b5 103c 2bd0 02bd
00000250: 3482 92bd a65a 98bd f302 0cbd 1840 373d
00000260: 8573 40bd 9b22 a2bc a18d 03ba dc94 933d
00000270: ee86 44bd d61d 2ebd 2c49 3b3d 6f9e 34bd
00000280: 6c87 643d b283 fa3b f923 d13c 3763 21bd
00000290: 9a7b 44bd 6760 8bbd f0c3 aabc 6429 17bd
000002a0: 505c 0a3d 41c1 9a3d dec7 e43c 110e 333d
000002b0: 2e32 59bd 01ac a0bd c14d 563d f32c c03c
000002c0: f797 873d 8d7a 7bbd b2fa 66bd 02ad 5dbd
000002d0: b3c0 2dbd f88f 8dbd 6887 1fbb dcf3 e73c
000002e0: 87ed 593d 98b5 053d 183e a33c f2e4 50bd
000002f0: 46de 8abd f83e e8bc ac44 68ba c235 73bd
00000300: 2481 063d db3d 1a3d 6ce3 97bd 8b25 8e3d
00000310: 6480 983d f3e3 003d f5a4 f1bc 3f9c f63c
00000320: 1869 2d3d 24fd 7a3d ea46 a03d 1962 6dbc
00000330: c1ee 983c 10b1 373c 1649 3dbd 6b31 0c3c
00000340: e76c 82bd a508 84bd 614f 81bd 5a48 d73c
00000350: 5a64 013c f5e6 24bd 8ecf a1bd 0b98 a93d
00000360: 5c68 4fbc ccb3 6c3d 08fe 4e3d bfea 69bb
00000370: fa9f 893d dcf2 e1bc 9f33 49ba 8292 78bc
00000380: 6f80 efbc 051d 36bd 923d 173d 41c6 133d
00000390: 68a2 debc 098f 4dbc df22 3b3d 7c4a 783d
000003a0: d05e ccbc 5db6 e3bb 8f0d 03bd 020d 2e3c
000003b0: e4cc 9c3d dc8f 943d cd9c 9ebb a3c4 8fbd
000003c0: 8153 073d 1d56 713d d9c9 c03c 012c 62bc
000003d0: efae 8fbc b454 2c3d f47b 613c 364c 0cbd
000003e0: d4fe 613d 664b 683d b113 253d 5b2a a23d
000003f0: 5a86 673d 8f52 953c 4561 9b3d bf4c 183d
0.053527664 0.061071884 0.081704535 -0.029735748 -0.07754373 -0.04843694 -0.031391844 -0.023985704
-0.04242423 0.042788934 0.057749256 -0.015595164 0.012788149 0.029242074 0.031808745 0.053907994
0.06668207 0.077686906 -0.021645833 0.06261281 -0.013123621 -0.057587475 -0.004624614 -0.03977205
0.070734344 0.05817618 0.025060879 0.025189796 0.032698806 0.0070139715 0.008538547 0.066924654
-0.058295585 -0.0704953 0.061515737 0.04364486 0.01893581 0.026929773 0.01411716 -0.0063245953
-0.039470963 -0.04768373 -0.0060430057 -0.059031088 -0.078333534 -0.020080077 0.034392998 0.008615693
0.06071775 0.026460342 0.041133616 0.024102533 0.07917685 -0.053680696 0.05781118 -0.0653506
0.07989202 0.06901118 0.057126287 -0.07221026 -0.06457298 0.01642689 0.01413684 -0.03096466
0.06093869 0.04758917 -0.052051432 0.079589255 -0.017019762 0.071690746 0.033432018 0.06431709
-0.019109337 0.03654978 -0.0762712 0.06503091 0.017204676 -0.007021774 0.0051730582 -0.011629082
-0.071005836 -0.012882144 0.020458763 -0.056013703 -0.020437354 0.062154204 -0.082095996 0.014379377
0.07472468 -0.038229074 0.048979107 0.036510557 -0.03829033 0.039100412 -0.019798273 -0.04548039
0.06697966 -0.079557724 0.05993227 -0.050460033 -0.0019641435 0.034819145 0.013641783 0.035281092
-0.07754638 -0.015915923 0.034359552 0.060395077 0.015725369 0.017382896 -0.04706458 -0.057057556
-0.03374767 0.065396436 0.06931353 -0.014032816 0.026259981 0.0019475098 -0.051836327 0.067221865
0.034036875 -0.053795777 -0.062351987 0.018762378 0.0182149 -0.03427323 -0.04259008 -0.06836212
0.034617756 0.018829437 0.05398202 -0.044032317 0.034696862 -0.06548347 -0.034653448 0.018235588
0.056917485 0.06573329 -0.030970424 0.04312885 0.05056234 -0.04287531 -0.04816199 -0.015075584
-0.06537373 -0.06487993 0.008832359 -0.031936806 -0.071537405 -0.07439165 -0.0341825 0.04473886
-0.046985168 -0.019791892 -0.0005018358 0.07206127 -0.04798024 -0.042508923 0.04572408 -0.044096407
0.05579321 0.007645094 0.025529848 -0.03940126 -0.047969438 -0.06805497 -0.020845383 -0.036904708
0.033779442 0.075563915 0.027927335 0.043714587 -0.05302637 -0.07845307 0.052320246 0.023458933
0.06620782 -0.06139617 -0.056391425 -0.05412007 -0.0424201 -0.069122255 -0.0024342183 0.028314523
0.05320504 0.032643884 0.01992707 -0.05099959 -0.067806765 -0.028350338 -0.00088603306 -0.05937744
0.032838 0.037656646 -0.07416424 0.069407545 0.074463636 0.03146739 -0.029497603 0.0301038
0.042336553 0.06127657 0.07826026 -0.01448872 0.018668534 0.011211649 -0.04621228 0.008556704
-0.06368428 -0.06446961 -0.063139684 0.026279617 0.007897461 -0.04025932 -0.07900916 0.08280953
-0.012659159 0.057788655 0.05053523 -0.0035692898 0.06719966 -0.027581625 -0.00076752336 -0.015171649
-0.029236047 -0.04446127 0.036923952 0.03607774 -0.02717705 -0.012546309 0.045687553 0.06061791
-0.024947554 -0.0069492296 -0.031995352 0.0106232185 0.07656267 0.072540015 -0.0048404695 -0.07019927
0.03303862 0.058920015 0.023533748 -0.013804437 -0.01753947 0.042072967 0.013762463 -0.034252368
0.055174664 0.05671253 0.040301982 0.07918235 0.056524612 0.018227844 0.07586912 0.037182566

bias f4 [3]
00000000: 3daf 343c 620c 43bd ea34 04bd
0.011028108 -0.04761923 -0.032277025
