models/classifier_ultimate.pth (torch, 5061 bytes, 2 tensors)

weight f4 [3, 256]
00000000: 81cc 8b3e dabe d0bc 884b 5cbe 3d57 9d3d
00000010: 31b6 f4bc b17d 9d3d f6c5 313e 2beb 8d3e
00000020: 4cb3 1ebe 85df 983e 56f9 803d 1085 66be
00000030: 50b9 373d 7e38 d8bd 22a4 dc3d cf85 623d
00000040: 1539 a1bc 1b3d d43c 7306 55bc c8d1 c13d
00000050: 3364 45bd ccf7 41bb 4edd 4b3d 6456 173e
00000060: e35a 4ebe d6f6 71be 5d89 1fbd abfd 423e
00000070: e9b0 e53c 843e f1bb 3482 893c 126c 4fbb
00000080: 16fc 14bd bc7b 64bd 9ed5 b9bc c6ca d03d
00000090: cadc 2abe 209f 8c3d 1703 a1bd ce70 59bd
000000a0: f512 0ebc 3fbe 9cbe aabe 2fbd 412b 2f3e
000000b0: 9f60 25bd 026d 4fbc 1044 783d 8ddb 8abc
000000c0: d0b3 b73d 2451 ab3d 3d90 873d 2a9a 2b3d
000000d0: b325 8abd c0c8 cfbd 974a 19bc f2fb 653d
000000e0: 71ff 06be 9680 02be 1461 d23d e946 58bd
000000f0: aaa4 743e 987b ce3b d2f0 f73b bc82 a1be
00000100: 14be 09bc 5f06 803e 57e7 9a3c 2eff 57bd
00000110: daa5 64bd 5999 a8be 54ab 27bb 7861 29be
00000120: ff2d 843d 6156 8abd d535 2fbd bca2 c03e
00000130: 27e7 bcbe 601b 6ebd 38f7 353d 5408 133e
00000140: f333 aebd df6c 8bbe b11a 60be b9b1 1e3d
00000150: 245f 7b3e 7a01 a13e 964f 8f3d ec43 01bd
00000160: b8e7 4bbb 77aa 333d b163 113e 6dd0 6f3e
00000170: 4b19 e4bc 5af5 8abd 16ab 053d c751 013d
00000180: c2ea 013e a503 b1be 2002 8ebd 841b 19be
00000190: b211 17bc dcc7 fc3d 206d 10be 0db9 663e
000001a0: 70e0 a4be 8b0c d93d 3976 90bc 5abf c2bd
000001b0: 0a8b f03d 4179 a1be a4a7 523e 4c1a bc3c
000001c0: a5e7 9d3d 7c69 113e 15be 933e 4821 893c
000001d0: 5e48 cebd 9d27 97bc 897a f63b 4060 183d
000001e0: dd86 853e a457 a73e 7cc4 26bd f136 963c
000001f0: 5969 fdbd aa7a f0bc 822a a6be ea08 d73d
00000200: 8d3e 8cbc 340a e93d fc82 a8bb 5ae5 1b3e
00000210: 75c1 05bc d382 fb3c 8ff2 1ebd 177d 123d
00000220: 3670 8dbd 82fe dabb 1070 0a3e 8273 2a3e
00000230: daae 5abd 00a7 8dbe 0973 613d da09 733e
00000240: 7024 a0be 2a1a 11bd 7330 9b3e 3b1e 3bbe
00000250: fd7a ac3e b90d 583e cb9a 183e 12d7 7f3d
00000260: bef0 d33c 38fd 9b3d 3899 6a3d bb1e 163e
00000270: 961f fabd e78a b4be 9f93 f4bc 48f2 733c
00000280: cfb1 28be ff8c ac3d 82da 34bb 5471 e1bd
00000290: b210 7cbe 6f6a aabe 0d02 8dbc bace 15be
000002a0: ac8d ba3e b740 a2be 9536 b3bd c256 8ebe
000002b0: 25a0 a03c 40de babd f2eb 9c3e fcc4 243e
000002c0: 28f5 a2bc 6255 603d 8cf5 c43d 5f6a ac3c
000002d0: eac2 bcbd eeaf 1f3d d1f4 823d 1df4 04be
000002e0: f829 593d 31dc 7bbd 169c 0ebe 5c56 333d
000002f0: 590f 8f3e e99c 323e 6e15 c4bd fe61 9fbb
00000300: 65f7 14bc 82c8 a5bd 788d 71be a3d3 1d3d
00000310: 15e4 44bc 2737 95bd 61ae a6ba 5f93 68bd
00000320: 1d28 b43c cb81 97be 1f5e de3d d780 023e
00000330: bf42 da3d bf15 82bd ccff a73e 2f10 033d
00000340: eb37 a43e 1a71 f93c 8f22 b03e be84 843c
00000350: bcc7 84bb 39e8 293e 8f79 58be 5b42 993d
00000360: 7b99 b93d 1b51 c43e 9d94 163e 9fe0 0f3c
00000370: 31ad 2b3c 4396 84bd 6ae3 c93c 8e5e a23d
00000380: 3d57 cfbe c912 bfbe 8fb0 ecbd edfa 083d
00000390: 4f54 cabc f649 94be 3ed7 ae3d 9e1b 3e3e
000003a0: 42f8 8dbd 0c6f 6ebe 158f 5cbe 01d8 9ebe
000003b0: afa8 933e 329e 463d 89a2 d33d 56d1 0bbe
000003c0: 3617 62bd c038 4b3d 2a2c 1dbd fa93 c33c
000003d0: 43be 75be 09ca 8b3e 2a51 333e 8f51 fdbd
000003e0: 8744 a53e 0a8e 96be fd4c 943d cfd5 5b3d
000003f0: b8c9 d5bb 7463 2b3e c91a 6dbe 9fa8 1e3d
0.27304462 -0.02548163 -0.21513188 0.07682655 -0.029872032 0.07689989 0.17360672 0.2771848
-0.15498084 0.29858032 0.06297557 -0.22511697 0.044854462 -0.1055765 0.10773493 0.05530339
-0.01968054 0.025908044 -0.013002026 0.09463841 -0.04819126 -0.0029597161 0.0497716 0.14779049
-0.20151858 -0.23629317 -0.03894936 0.19042079 0.028038459 -0.007362189 0.016785719 -0.0031650108
-0.03637322 -0.055782065 -0.022684868 0.10194926 -0.16685787 0.06866288 -0.078619175 -0.053086095
-0.008671512 -0.30613896 -0.04290644 0.17106344 -0.04037535 -0.012660267 0.060611784 -0.016950393
0.089698434 0.08365086 0.06619308 0.04189507 -0.06745472 -0.10145712 -0.0093561625 0.056148477
-0.1318338 -0.12744364 0.102724224 -0.052802 0.2389094 0.0063013546 0.00756655 -0.31545055
-0.008407135 0.2500486 0.01890914 -0.052733593 -0.05582223 -0.32929495 -0.0025584297 -0.16541088
0.064540856 -0.06754757 -0.042775948 0.37624156 -0.36895105 -0.058131576 0.04442522 0.14358646
-0.08506002 -0.272315 -0.21885182 0.03874371 0.24548012 0.3144644 0.06997602 -0.031558916
-0.0031113457 0.04386374 0.14198186 0.23419352 -0.027844092 -0.06785078 0.032633863 0.03157213
0.12687209 -0.34573093 -0.06933999 -0.14951903 -0.0092205275 0.12342808 -0.14104128 0.22531529
-0.32202482 0.105980955 -0.017634498 -0.09509154 0.117452696 -0.31537822 0.20571762 0.022961758
0.07710198 0.14200395 0.2885596 0.016739503 -0.10072397 -0.018451506 0.0075219315 0.037201166
0.26079455 0.32684052 -0.040714726 0.018336745 -0.12373609 -0.029355366 -0.32454306 0.10499747
-0.01711967 0.11378899 -0.0051425677 0.1522421 -0.0081637995 0.03070203 -0.03880554 0.035763826
-0.06906168 -0.0066831717 0.13519311 0.16645625 -0.053389408 -0.27666473 0.055041347 0.23734227
-0.312778 -0.035425343 0.303104 -0.18273251 0.33687583 0.21098985 0.14902799 0.062460966
0.02587163 0.07616657 0.057275027 0.1466016 -0.12213056 -0.35262224 -0.029855547 0.014889307
-0.16474079 0.0842533 -0.002759606 -0.11007944 -0.24615744 -0.33284327 -0.017212892 -0.14629641
0.36436212 -0.31689999 -0.08750645 -0.27800566 0.019607613 -0.09124422 0.30648762 0.16090769
-0.01989229 0.054768927 0.09617147 0.021046815 -0.092168644 0.03898614 0.06394351 -0.12983747
0.05301854 -0.061489288 -0.1392673 0.04378353 0.27941397 0.17442669 -0.095744 -0.0048639765
-0.009092187 -0.080948845 -0.23589122 0.03853191 -0.01201727 -0.0728591 -0.0012716764 -0.05678117
0.021991784 -0.29591212 0.10857796 0.12744461 0.10657262 -0.06351804 0.32812345 0.031997856
0.32073912 0.030449439 0.34401366 0.016176578 -0.0040521305 0.16592492 -0.21140121 0.074833594
0.09062477 0.3834313 0.14705129 0.008781581 0.010478304 -0.06473973 0.024644572 0.07928191
-0.40496245 -0.3731902 -0.115571134 0.033442426 -0.024698405 -0.28962678 0.08537148 0.18565223
-0.06932117 -0.23284549 -0.21538956 -0.31024173 0.28839633 0.04849071 0.103337355 -0.13654074
-0.055197917 0.049614668 -0.038372196 0.023874272 -0.2399836 0.27302578 0.1751143 -0.12369072
0.32278845 -0.29405242 0.07241247 0.0536707 -0.006524291 0.16737157 -0.23154749 0.03873503

bias f4 [3]
00000000: c764 1abd c3cb 5a3d cc28 63bd
-0.037693765 0.05341698 -0.05545883
