models/classifier_ultimate.pth (torch, 5125 bytes, 2 tensors)

weight f4 [3, 256]
0	0xbeb311d9	-0.34974554
1	0xbeb43311	-0.3519521
2	0x3f0f4917	0.559709
3	0xbee9f265	-0.45692745
4	0xbeb1978a	-0.34685928
5	0x3e1aafc2	0.15106109
6	0xbe8f9b81	-0.28048328
7	0xbed30143	-0.412119
8	0x3ea6c153	0.3256937
9	0x3f0bc7bf	0.54601663
10	0xbebaf6aa	-0.36516315
11	0xbea1afd3	-0.31579456
12	0xbf02abf7	-0.5104365
13	0x3ec49262	0.3839293
14	0x3ed81adf	0.42208
15	0x3ed323c4	0.41238225
16	0xbe3efce0	-0.18651152
17	0x3ee99016	0.4561774
18	0x3e9ac984	0.3023187
19	0x3ee79024	0.45227158
20	0x3e98cb2c	0.29842508
21	0x3ec2d609	0.3805392
22	0x3f006663	0.5015623
23	0x3ec132ec	0.37734163
24	0xbee60c44	-0.44931233
25	0x3ea679fe	0.32514948
26	0x3ed4cfd2	0.41564804
27	0xbeb60aae	-0.35555023
28	0x3eeb89e1	0.4600363
29	0xbeac86b6	-0.33696526
30	0x3e36a818	0.1783756
31	0xbe8332ad	-0.256246
32	0xbecff6e5	-0.40618053
33	0xbdd72a53	-0.105061196
34	0xbed2317f	-0.41053388
35	0xbea6878f	-0.32525298
36	0xbf14a2f4	-0.58061147
37	0x3ef58a37	0.47957012
38	0xbf2380bb	-0.638683
39	0xbe92c53b	-0.286661
40	0x3ea553a0	0.32290363
41	0xbec754a6	-0.3893177
42	0xbf010821	-0.5040303
43	0x3f011d17	0.5043501
44	0x3efd7ee7	0.4951088
45	0x3eb0f0fb	0.34558854
46	0x3eab7b91	0.3349271
47	0x3f01b59c	0.5066774
48	0xbeae1663	-0.34001455
49	0x3ee05067	0.43811342
50	0xbef62d55	-0.4808146
51	0xbeaea850	-0.34112787
52	0x3edd82bb	0.43263802
53	0x3ecc29ba	0.39875585
54	0x3ec0fe52	0.3769403
55	0xbed6eae9	-0.41976097
56	0xbebe90d5	-0.37219873
57	0xbf07554e	-0.5286454
58	0x3ef6abbc	0.48177898
59	0xbeea3506	-0.4574358
60	0x3e9504a1	0.29105094
61	0x3ef6086f	0.4805331
62	0x3eb46128	0.35230374
63	0xbeadc178	-0.33936667
64	0xbe216c8c	-0.15764064
65	0xbf0848d3	-0.5323612
66	0xbeae81fc	-0.34083545
67	0xbed89f45	-0.42309013
68	0xbec1457d	-0.37748328
69	0xbe1e7134	-0.15472871
70	0x3e012330	0.12611079
71	0xbecb31e2	-0.39686495
72	0xbf051c04	-0.51995873
73	0xbf122eb2	-0.571025
74	0x3f0c04a1	0.54694563
75	0xbed942f5	-0.42433897
76	0x3ecd496e	0.40095085
77	0xbe30c808	-0.17263806
78	0x3eda90af	0.4268851
79	0x3d5cd5a1	0.05391467
80	0xbee77444	-0.4520589
81	0x3eb72dc2	0.35777098
82	0x3f07a612	0.5298778
83	0x3e04ee86	0.12981614
84	0x3f01c91f	0.5069751
85	0x3f09b9c0	0.53799057
86	0xbee1e1c0	-0.44117546
87	0x3ef2fece	0.47460026
88	0xbf0d8f9b	-0.5529725
89	0xbecdf3f5	-0.40225187
90	0x3f1824cb	0.5943114
91	0xbee29f60	-0.44262218
92	0x3f045f6b	0.51708096
93	0x3ef062c4	0.46950352
94	0x3ea1e174	0.3161732
95	0x3efc9a30	0.49336386
96	0xbedd53c2	-0.43227965
97	0xbf0ca8f2	-0.5494529
98	0x3edd7bfa	0.4325865
99	0x3edf6f6b	0.43639693
100	0xbee882eb	-0.45412382
101	0xbeebafdc	-0.46032608
102	0x3eca1565	0.39469448
103	0x3f0cda2f	0.5502042
104	0xbeb78681	-0.35844806
105	0xbee58965	-0.44831386
106	0x3e53321e	0.20624587
107	0xbec31bbb	-0.38107094
108	0x3e95ea4a	0.2928031
109	0xbeeb9eb9	-0.46019533
110	0xbf357910	-0.7088785
111	0xbeb32eb4	-0.3499657
112	0x3ea17cf8	0.31540656
113	0xbe8c5a5e	-0.27412695
114	0xbeca83ab	-0.3955358
115	0x3ed0b45c	0.40762603
116	0x3eb5454f	0.3540444
117	0xbea0d727	-0.31414148
118	0xbea47441	-0.32119945
119	0xbeb36a7c	-0.3504218
120	0xbea8c7ae	-0.32964844
121	0x3f279b15	0.6547101
122	0xbed48c3e	-0.41513246
123	0x3ed18859	0.40924338
124	0x3eabad1c	0.3353051
125	0xbea15fc4	-0.31518376
126	0xbec12f4d	-0.377314
127	0x3ea7b7c7	0.32757398
128	0xbea64896	-0.32477254
129	0xbf02ce51	-0.51096064
130	0xbf05500e	-0.5207528
131	0x3d8bc303	0.06824305
132	0x3ebe069e	0.37114424
133	0xbf18adf5	-0.5964044
134	0xbe8e1966	-0.27753752
135	0xbe4bde76	-0.19909081
136	0x3ef93733	0.48674926
137	0xbefdaeec	-0.49547517
138	0x3dbb4e5b	0.091458045
139	0x3ed17192	0.4090696
140	0xbef8a55a	-0.48563653
141	0x3ec972cf	0.39345405
142	0x3ea6ceb3	0.32579574
143	0xbec419f2	-0.38301045
144	0x3d0da4be	0.03458094
145	0xbdb4e61a	-0.08832951
146	0xbf044f17	-0.5168318
147	0xbebda2d9	-0.37038305
148	0x3eb1cf2c	0.34728372
149	0x3f120110	0.5703287
150	0x3f087a55	0.53311664
151	0xbea488ef	-0.32135722
152	0xbe9c5ed2	-0.30541092
153	0xbec35c50	-0.38156366
154	0x3ede46b5	0.4341332
155	0xbeccd89a	-0.40009004
156	0xbed9e127	-0.4255459
157	0x3ea9c522	0.33158213
158	0xbe980a03	-0.29695138
159	0xbec9b94a	-0.39399177
160	0x3e91cc68	0.28476262
161	0x3ef29c64	0.47384942
162	0xbe8f074a	-0.2793525
163	0x3ecd557a	0.40104276
164	0x3eaba53e	0.33524507
165	0x3eb469bf	0.35236928
166	0x3eb21299	0.34779814
167	0xbec68990	-0.38776827
168	0x3ea7bbc4	0.3276044
169	0x3e9f1693	0.3107191
170	0xbeed9345	-0.4640142
171	0x3ec28b06	0.3799669
172	0xbed7e314	-0.42165434
173	0x3eaac9c1	0.3335705
174	0x3ef63393	0.48086223
175	0xbea23d88	-0.3168757
176	0x3e9e90d1	0.3096986
177	0x3ecf7d74	0.405254
178	0xbeeb368a	-0.45940048
179	0x3ebe5279	0.37172297
180	0xbf01409e	-0.50489223
181	0xbeb2c492	-0.34915596
182	0xbe9e767d	-0.30949774
183	0x3e863683	0.26213464
184	0x3ef78f39	0.48351458
185	0xbeaccbfc	-0.33749378
186	0x3ef76520	0.4831934
187	0x3e996a9f	0.29964158
188	0xbeb1cdda	-0.34727365
189	0x3eb9f7dd	0.36321917
190	0x3ec024ad	0.3752798
191	0x3ea8fd19	0.33005598
192	0x3eb0fa8e	0.34566158
193	0x3efc66ad	0.49297085
194	0x3d3d00a4	0.04614319
195	0xbf29245a	-0.66071093
196	0xbec0498f	-0.3755612
197	0x3edb7365	0.42861477
198	0x3eec439c	0.46145332
199	0xbef2c755	-0.47417703
200	0xbecd7dd2	-0.40135056
201	0x3e7b262a	0.24526277
202	0x3ec6da64	0.38838494
203	0xbee2b2db	-0.4427708
204	0xbefa6f2f	-0.4891295
205	0xbed44d15	-0.4146506
206	0x3df39d6f	0.118952624
207	0xbe9b21af	-0.30299136
208	0x3eca04ed	0.39456883
209	0xbe8e6a4c	-0.27815473
210	0xbe9a4783	-0.30132684
211	0x3ecfa41d	0.40554896
212	0xbe448148	-0.19189942
213	0x3f021b49	0.50822884
214	0xbf0c242e	-0.54742706
215	0x3f098604	0.53720117
216	0xbef57a5d	-0.47944918
217	0x3eed0214	0.46290648
218	0xbf13bb8c	-0.5770805
219	0x3ec02106	0.37525195
220	0xbef5fd70	-0.4804492
221	0x3ecb3caf	0.39694735
222	0xbefb5ed9	-0.490958
223	0x3eeadf9e	0.4587373
224	0xbf265186	-0.64968145
225	0xbe302b2b	-0.17203967
226	0xbf17510e	-0.59108055
227	0xbed47eaa	-0.41502887
228	0x3e76439a	0.24049225
229	0x3eb95f9a	0.3620575
230	0xbef26699	-0.473439
231	0xbea1c40a	-0.31594878
232	0x3ee23980	0.44184494
233	0x3edf6c4c	0.4363731
234	0xbeb4409b	-0.3520554
235	0x3edffea1	0.43748954
236	0x3ebd243c	0.36941707
237	0x3edc566b	0.43034682
238	0xbef33075	-0.47497907
239	0xbecc6fc4	-0.3992902
240	0x3eeb7bad	0.45992795
241	0x3ec15641	0.3776112
242	0xbefc3945	-0.49262443
243	0x3f056851	0.521123
244	0xbeec267b	-0.46123108
245	0x3f09204d	0.5356491
246	0xbdc2029f	-0.09473156
247	0xbed4c106	-0.41553515
248	0x3dfcdbf2	0.12346639
249	0x3efb9dc4	0.49143803
250	0x3d9ca30c	0.07648286
251	0x3f10de9e	0.56589687
252	0x3eac0bfa	0.33602887
253	0x3ea1e1b7	0.3161752
254	0xbecb8b90	-0.39754915
255	0xbebff512	-0.3749166

bias f4 [3]
0	0xbd0e8649	-0.034796033
1	0x3d51fbb2	0.051265426
2	0xbb976b1f	-0.004620924
