models/classifier_ultimate.pth (torch, 5061 bytes, 2 tensors)

weight f4 [3, 256]
0	0xbdc9274d	-0.09821949
1	0xbc12506a	-0.008930305
2	0xbd9ff35c	-0.07810089
3	0x3da7cec5	0.08193735
4	0xbd1e040b	-0.038578074
5	0x3dab2412	0.08356489
6	0xbd850e1b	-0.06496831
7	0xbd9738aa	-0.07383855
8	0xbc9b0fe7	-0.018928481
9	0x3daed372	0.08536424
10	0x3da6510e	0.08120929
11	0xbd6a70dc	-0.057236537
12	0x3da44345	0.08020643
13	0x3c1d403b	0.009597833
14	0xba58179d	-0.0008243265
15	0xbda63a04	-0.08116534
16	0xbdd60a42	-0.10451175
17	0xbd58acb8	-0.052899092
18	0xbdc877bf	-0.09788465
19	0x3ceea7cd	0.029132748
20	0x3dd5d9be	0.10441922
21	0xbb08a8ad	-0.0020852492
22	0x3d9c092d	0.07618938
23	0x3d3b7442	0.04576517
24	0xbcd6cc1f	-0.02622038
25	0x3d9e0337	0.07715457
26	0xbdb6a043	-0.08917286
27	0xb9b8c2e2	-0.00035240414
28	0x3d9e477a	0.07728477
29	0xbda8f7e2	-0.08250405
30	0x3c9fe808	0.01951982
31	0xbdd01262	-0.10159756
32	0xbdcd9152	-0.10037483
33	0xbdc7cf80	-0.09756374
34	0x3dcf397b	0.101183854
35	0xbdb593ea	-0.08866103
36	0x3d055966	0.03255596
37	0xbdb1482f	-0.08656346
38	0xbdc0ce62	-0.094143644
39	0xbdd8fd57	-0.10595196
40	0xbd8e69ee	-0.06953798
41	0xbd5a039b	-0.053226095
42	0x3d5ce6a1	0.053930882
43	0x3d5d5dda	0.054044582
44	0x3dbdf399	0.09274978
45	0xbdc6a6fe	-0.0969982
46	0x3d32d1a1	0.04365695
47	0x3d586651	0.05283195
48	0xbdc9b5ac	-0.09849104
49	0xbd50faf9	-0.051020596
50	0x3d4cf6cb	0.050040048
51	0xbd1fdcae	-0.039028816
52	0xbde505a3	-0.11182716
53	0x3dbe496f	0.0929135
54	0xbd3dab87	-0.04630616
55	0xbd58a338	-0.052890033
56	0x3dd428e7	0.10359364
57	0xbd91393d	-0.070909955
58	0x3d31a809	0.04337314
59	0xbd98b9b9	-0.07457299
60	0x3d91bf67	0.07116585
61	0x3d1c0273	0.038088273
62	0xbd91669c	-0.07099649
63	0xbc177058	-0.009243093
64	0x3d6e212d	0.058137108
65	0x3c8c4acb	0.017125508
66	0x3d383411	0.04497153
67	0x3d1cc5ba	0.038274504
68	0xbbddf7c3	-0.0067739203
69	0xbcfafa59	-0.030636953
70	0x3db11df6	0.08648293
71	0x3aaf738d	0.0013385877
72	0x3d966c58	0.07344884
73	0xbd69bd4f	-0.057065304
74	0x3d95bb5b	0.07311126
75	0x3c5354b0	0.012898609
76	0xbda9a9f7	-0.08284371
77	0x3d521ee7	0.051299002
78	0x3dc497c8	0.095992625
79	0x3d7df56f	0.06200164
80	0x3db6d625	0.089275636
81	0x3d8c97a9	0.068648644
82	0xbd9c17f3	-0.076217555
83	0x3dad324d	0.0845686
84	0x3d635c08	0.05550769
85	0x3cc57e70	0.024108142
86	0x3c994c6c	0.018713199
87	0x3d398234	0.045290187
88	0x3d29f816	0.04149636
89	0x3d037f03	0.03210355
90	0x3d5b2238	0.05349943
91	0xbd89f163	-0.06735494
92	0xbcbbe4a0	-0.022936165
93	0x3c19ad2f	0.009379669
94	0x3cbac1fa	0.022797573
95	0x3dd28dd1	0.102809556
96	0xbd2a6b55	-0.041606266
97	0x3d8599df	0.06523489
98	0x3dabd076	0.0838937
99	0x3a0f2f3e	0.0005462057
100	0x3d6ee3d3	0.05832274
101	0xbdaa8f2d	-0.0832809
102	0x3d85dd5c	0.065363616
103	0xbd31b6bc	-0.04338716
104	0x3ddec036	0.10876505
105	0x3dc32b04	0.09529689
106	0x3dbd9f8d	0.092589475
107	0x3d71b427	0.059009697
108	0x3d1a194d	0.037621785
109	0x3d11fe4c	0.035642907
110	0x3d2bde64	0.041960135
111	0xbd9c0389	-0.07617862
112	0xbcfffbab	-0.031247934
113	0x3d8fe1a5	0.0702546
114	0x3db9656f	0.0905255
115	0x3d8511f3	0.06497564
116	0x3d482ca2	0.04887069
117	0xbdab82dd	-0.083745696
118	0x3dbecff6	0.09317009
119	0xbdcf98b4	-0.10136548
120	0xbde4376d	-0.11143384
121	0x3ce90716	0.028445762
122	0xbce00f1b	-0.027350953
123	0x3da5a518	0.0808813
124	0x3da23bd8	0.079215705
125	0xbd3dc49a	-0.046330072
126	0x3db599d7	0.08867233
127	0x3cbcb310	0.023034602
128	0xbd868277	-0.06567853
129	0xbd729259	-0.0592216
130	0xbda02d15	-0.07821099
131	0xbcd077aa	-0.025447685
132	0x3d106a17	0.035257425
133	0xbdd57847	-0.10423332
134	0xbd38b9bd	-0.04509901
135	0xbc0725fd	-0.008248803
136	0xbd6067a0	-0.054786325
137	0xbd5f1de5	-0.05447187
138	0x3d48e2de	0.049044482
139	0xbc9dc6a6	-0.019259762
140	0xbdd144a9	-0.10218174
141	0xbddd0351	-0.10791648
142	0x3b34f110	0.0027609505
143	0x3dd56d6f	0.104212634
144	0x3c92db61	0.017926874
145	0xbd1c08f5	-0.03809448
146	0xbbfb3868	-0.0076666363
147	0xbd0ffddf	-0.03515422
148	0xbdcaefc1	-0.09909011
149	0xbcbb0911	-0.022831472
150	0xbdc1a301	-0.09454919
151	0xbd9c5dcc	-0.07635078
152	0x3db09cf7	0.08623689
153	0xbb7209f3	-0.00369322
154	0xbdd39498	-0.103310764
155	0x3db8e1fd	0.09027479
156	0xbb1505bc	-0.0022739014
157	0xbd762e6c	-0.060102865
158	0xbdce12c5	-0.10062174
159	0xbd941add	-0.07231686
160	0x3d407c8a	0.04699377
161	0xbd9a62ef	-0.07538401
162	0xbde204c8	-0.11036068
163	0xbd6faf73	-0.05851693
164	0xbd7dabfd	-0.0619316
165	0x3d79dcc2	0.061001547
166	0xbdb0be7c	-0.08630082
167	0xbde0ab1e	-0.10970138
168	0xbddb1ef4	-0.10699263
169	0xbd8bde66	-0.068295285
170	0xbdd1727c	-0.10226914
171	0xbdc6f87c	-0.097153634
172	0x3dcd1723	0.100141786
173	0x3d87b4e6	0.066263005
174	0x3cde2be8	0.027120546
175	0x3d60e9af	0.054910358
176	0xbdac57e2	-0.084152
177	0x3dbea394	0.09308544
178	0xbda62a4f	-0.081135385
179	0x3cc4fcd8	0.024046347
180	0x3d5251d1	0.051347557
181	0x3d92a76f	0.07160842
182	0xbc69faee	-0.014281018
183	0xbd53f1ad	-0.05174415
184	0xbd036e5c	-0.03208767
185	0x3d99d685	0.075116195
186	0x3dc9f063	0.09860303
187	0xbd92dbbf	-0.071708195
188	0x3d3fcdd0	0.046827137
189	0x3de1d4ef	0.11026942
190	0x3d85e0e4	0.06537035
191	0x3db9b8d6	0.09068458
192	0xbdd2eee1	-0.10299469
193	0x3dcb309d	0.099213816
194	0xbd92d7b1	-0.07170046
195	0xbd45ba76	-0.048273526
196	0xbd870632	-0.065929785
197	0xbb12d1bd	-0.0022402846
198	0xbdbea4a0	-0.093087435
199	0x3cfb82ec	0.030702077
200	0x3dd0a159	0.101870246
201	0x3db4ef97	0.08834761
202	0xbd8a9f4c	-0.06768665
203	0xbd1bb0a9	-0.038010273
204	0x3d261ef8	0.040556878
205	0x3d64136e	0.055682592
206	0x3c9f5d1f	0.019453583
207	0xbcfb7bd1	-0.030698689
208	0x3d247a40	0.04015565
209	0xbd1fbc23	-0.03899778
210	0xbc9c6c46	-0.019094598
211	0x3cd9fe78	0.026610598
212	0xbaf9cfbe	-0.0019059104
213	0x3dca479b	0.09876939
214	0xbd87c989	-0.06630237
215	0x3d185a21	0.03719533
216	0x3ddabe9f	0.10680889
217	0x3da8fa42	0.08250858
218	0xbd9bf8e5	-0.07615832
219	0xbd93f80a	-0.07225044
220	0x3d828723	0.063734315
221	0x3d887574	0.066630274
222	0xbb250be5	-0.0025184092
223	0xbce7dc4b	-0.028303286
224	0x3cc95fc6	0.024581801
225	0xbd9b1a98	-0.07573432
226	0xbdb55f3f	-0.088560574
227	0x3d31fde6	0.043455027
228	0x3d8b310d	0.06796465
229	0x3ce2ada7	0.027670695
230	0x3d6fbe14	0.058530882
231	0xbcc0190a	-0.02344944
232	0xbc9afb84	-0.01891876
233	0xbd9bcbef	-0.076072566
234	0x3d7cf8ce	0.061760716
235	0xbd99b071	-0.07504357
236	0x3b37a8b8	0.0028024148
237	0x3dc436b8	0.09580749
238	0xbb8f4193	-0.0043718307
239	0x3d0e7669	0.034780893
240	0xbb8868f3	-0.0041629015
241	0x3d85d768	0.06535226
242	0xbd2b5baa	-0.041835465
243	0xbdb94188	-0.09045702
244	0xbd8e5432	-0.06949653
245	0xbc697212	-0.014248388
246	0x3dad4e85	0.08462242
247	0x3da11a99	0.07866401
248	0xbd9764e5	-0.07392291
249	0x3c96a3a3	0.018388575
250	0x3cc99619	0.024607705
251	0xbd6e9fe2	-0.058257945
252	0xbdd9ec8e	-0.10640822
253	0x3d948d82	0.07253553
254	0x3d8b1b13	0.06792273
255	0x3d56d8fb	0.052453022

bias f4 [3]
0	0xbd099d1e	-0.033597104
1	0x3d02c38a	0.03192476
2	0x3cd29fea	0.025711019
