models/classifier_dann.pth (torch, 5093 bytes, 2 tensors)

weight f4 [3, 256]
000000 b8 bb 35 bc e6 01 58 bd 74 fe 6a 3d db a4 72 3d
       -0.011092119 -0.052736185 0.05737157 0.05923925
000010 40 af 22 ba d2 6a 07 bd b9 5e 17 3d 0b 83 58 bc
       -0.0006205924 -0.033060856 0.03695557 -0.013214837
000020 c8 4a 5b 3d 52 41 75 3d ee 52 4d 3d 04 78 1f 38
       0.053538114 0.059876747 0.050127916 3.8020327e-05
000030 fe 79 7f bd 3a d4 61 3d 80 03 80 bc 9d 5f 8d 3c
       -0.0623722 0.055134036 -0.015626669 0.017257506
000040 76 5a 53 3d 16 ee 72 3c 14 82 30 bd 50 f6 38 bd
       0.051599942 0.014827272 -0.043092802 -0.045156777
000050 90 bb 3f 3d 2d 2d a3 bc fa d3 58 3d 05 ff e0 bc
       0.046809733 -0.019919002 0.05293653 -0.027465353
000060 02 e0 78 3c e5 58 59 3d 2c 48 f4 3b b4 87 91 bc
       0.015190126 0.053063292 0.0074548926 -0.017764904
000070 a6 90 07 3d df da 4a 3d e5 bd a4 3b 58 67 bc 3b
       0.033096932 0.049525138 0.00502752 0.005749624
000080 f7 4d 57 3a 6c 59 d4 3c e7 3f 62 bd fc 31 59 bd
       0.0008213217 0.025921546 -0.055236723 -0.053026184
000090 13 d6 57 bd 7c 17 ca 3b ce 3c 06 3d 9a 8e 80 3c
       -0.05269439 0.0061673503 0.03277283 0.015692998
0000a0 63 a5 54 bc d0 fc 92 bc 55 8c 5a bd 30 5e 20 3c
       -0.012978884 -0.017942816 -0.053356487 0.009788081
0000b0 3d 50 74 bc 75 b0 de bc 35 55 8d bc 7e d8 76 3d
       -0.014911708 -0.02718375 -0.017252544 0.060265057
0000c0 86 7c 75 3c 30 6f dd bc 73 b7 3d 3c 9b 32 6e 3d
       0.014983302 -0.027030557 0.011579382 0.05815373
0000d0 98 c6 76 3b 00 c4 f9 bc d2 20 6e bd cc 0a 11 3d
       0.0037654992 -0.030488968 -0.05813677 0.035410687
0000e0 03 e0 45 3d 26 4d d2 3c 5d 5a 26 bd ce 3b ac 3b
       0.048309337 0.025671553 -0.04061352 0.0052561527
0000f0 59 62 fd bc f3 d4 1e bd f8 d6 c0 3c 1c 4a 4d 3d
       -0.030930685 -0.038777303 0.023540005 0.050119504
000100 46 25 37 bc 3c 11 4b 3c e9 a1 7e 3d 07 80 25 3d
       -0.01117832 0.012394246 0.06216613 0.0404053
000110 57 bc 43 3d 21 e9 cc 3b 47 a7 77 bd d6 2e 96 bc
       0.047787037 0.006253377 -0.060462262 -0.01833288
000120 3b b8 7c bd a8 68 57 3c 6d 6b 80 bd 7b f6 ff bc
       -0.061699133 0.013147511 -0.0627049 -0.03124546
000130 6d 2b a1 3c 91 36 2c 3d bf 23 fc bc 06 2b b6 bc
       0.019674027 0.042044226 -0.030778764 -0.022237312
000140 e9 d4 6c bd f9 86 73 bb b6 f3 30 bd 2a de 09 bd
       -0.057820234 -0.0037159307 -0.04320117 -0.033659138
000150 25 83 9f bc 0f 95 a1 bb c7 5b 1e 3d 63 c1 45 bb
       -0.019471714 -0.0049310992 0.038661744 -0.0030175082
000160 9a 3b 59 3d 26 07 4a 3d dd 87 24 bd 13 b0 3e 3d
       0.053035356 0.049323224 -0.04016863 0.046554636
000170 60 a7 0b 3d 96 16 66 bd 3a e6 0f 3c 7d 94 40 3b
       0.034095168 -0.056173883 0.008782918 0.002938538
000180 e6 4d 28 3d d9 42 75 3d b6 9b 3e bd 8a 56 5a 3d
       0.041089915 0.059878204 -0.046535216 0.053305186
000190 64 a0 d9 3c a2 32 64 3c b3 f4 e8 3b 57 67 75 3c
       0.026565738 0.013928087 0.0071092485 0.014978251
0001a0 c0 77 a9 3b 74 08 3b 3d 20 5c 3e bd 3c fd 42 3d
       0.005171746 0.04566236 -0.046474576 0.047604784
0001b0 29 96 7d 3d c4 f0 23 3d 6a 21 1e 3c a9 e8 12 bd
       0.061910782 0.040024534 0.009651521 -0.035866413
0001c0 e1 d0 a8 bc 9c 82 33 bd 51 a6 a7 3c 82 b6 66 bd
       -0.020607414 -0.04382573 0.020465048 -0.056326397
0001d0 58 c6 c4 3b 78 e8 c6 bc 0d 24 d2 bc 3f 4f cc bc
       0.0060050897 -0.024280772 -0.025651956 -0.024940131
0001e0 1b 07 71 3d bc d4 49 bd c9 8c 1b bd 4b 4f 01 3d
       0.058844667 -0.049275145 -0.03797606 0.03156976
0001f0 41 b1 71 3c 18 d0 16 bd 30 f1 69 bd 31 6b 20 bd
       0.014751733 -0.036819547 -0.05711478 -0.039164726
000200 c4 be 33 bc 28 6a af bc f1 53 5e 3d ec 09 43 bd
       -0.010970775 -0.021412924 0.05427927 -0.047616884
000210 d6 91 83 3d bd 6a 41 3c 52 cf 19 bd f7 61 0f 3d
       0.064243004 0.011805234 -0.03755123 0.035005536
000220 6b 09 b1 3c 73 a3 31 bc 84 7d 13 3d d6 4f 09 3c
       0.021610936 -0.010842192 0.036008373 0.008380851
000230 d3 2e 2e 3c 0e a1 91 bc c7 dc 19 3c 05 29 81 3d
       0.010631281 -0.017776992 0.009391016 0.06306652
000240 c4 ad 70 3d b5 78 ea 3c 61 e3 eb 3c 43 7a 75 bc
       0.058759466 0.02862201 0.028794946 -0.014982763
000250 66 8d 65 bd 84 86 27 bd cd 3d 5b 3d b4 ca 60 bd
       -0.05604305 -0.04089977 0.053525735 -0.054880813
000260 55 3a 3c bc bb 5a 21 3d a2 cb 48 bd 1c 2c 49 bc
       -0.011488517 0.039393168 -0.049022324 -0.012278583
000270 fd f0 a5 3b c4 e1 01 3d 40 0b 81 3d 0c e3 48 3c
       0.0050641284 0.031709448 0.06300974 0.012261163
000280 7d b5 d1 3c 17 61 78 3d 2e e4 80 bd 51 4e 48 3c
       0.025599236 0.060639467 -0.06293522 0.012225703
000290 2a 74 7b 3c db b0 a4 bb 52 0a 2c 3d 40 db 05 bd
       0.01534752 -0.0050259656 0.04200203 -0.032679796
0002a0 c5 89 9d bc e9 d2 1a bd 22 be fe bc 88 11 84 bc
       -0.019230733 -0.037798796 -0.031096522 -0.01612164
0002b0 ef d2 c3 bc 5d 87 45 3b 5f dd f0 3c bd 0a 8e 3c
       -0.023904292 0.0030140497 0.029402433 0.017339105
0002c0 7d 35 2a 3d 52 55 6d 3d d1 87 40 3c 51 d4 fd 3c
       0.041554917 0.057942696 0.011751131 0.03098503
0002d0 8a 8f 08 3c d0 f8 70 3c d0 95 88 3c 7e 5d 5a bd
       0.008335004 0.014707759 0.016672999 -0.053311817
0002e0 0e d1 2f bd c1 cb 5d bd 6e b4 1d 3c a8 81 ea bc
       -0.04292398 -0.054149393 0.009625537 -0.028626278
0002f0 29 8f a1 3c a5 62 a4 ba 6d ec 8d ba 3e 77 62 bd
       0.019721584 -0.0012541605 -0.0010827907 -0.0552895
000300 57 73 bc 3c dd 1d e8 3c 13 bf 4b bd 03 f9 31 bd
       0.023004217 0.028334552 -0.04974277 -0.043450367
000310 1c c4 b6 bc 4d 27 75 bd 51 b2 80 3d b0 bd df bb
       -0.02231031 -0.059851933 0.06284011 -0.0068280324
000320 34 7c 32 bd e6 4e 40 3d dc e7 7a bd bd 1a 2c bc
       -0.04357548 0.046950243 -0.061256275 -0.010504422
000330 63 25 32 bd 61 82 75 3d b8 e7 1a bb dd 4e 23 bc
       -0.043492686 0.059938792 -0.002363665 -0.009967533
000340 ad e4 de bc 53 d6 09 3d 65 3c 0e bd 6c 42 f4 bc
       -0.02720865 0.03365166 -0.034725565 -0.029816829
000350 0d d4 14 3d 03 9c 7c bd 1c e4 e7 3c 2d 6e 70 3d
       0.03633504 -0.061672222 0.028307013 0.05869882
000360 3c a5 d6 3c 2f be ce 3b 8b 90 dd 3c 1b ba 24 bd
       0.026201837 0.0063092927 0.027046463 -0.040216547
000370 10 1f 45 3a ee 82 4c 3a 48 c4 fb 3c 0a 93 f7 bc
       0.0007519582 0.00078014925 0.030733243 -0.03022148
000380 99 dd 7c bc fc 63 41 3d 06 49 51 bd 98 f9 39 bd
       -0.015433692 0.047214493 -0.05109503 -0.045404047
000390 6e 1f 9a bb 14 ac d6 3c 78 f7 8a b9 e9 f4 32 bc
       -0.0047034537 0.0262051 -0.0002650579 -0.010922649
0003a0 47 08 0c bd 5e 9f 23 bd 97 8a e4 3a de 0b 89 3b
       -0.03418758 -0.039946906 0.0017436323 0.004182323
0003b0 4a d4 a4 bc 7e e1 71 3a f1 d0 2a bd 4f a7 0b 3d
       -0.020120759 0.00092270214 -0.04170317 0.034095105
0003c0 e8 6a 07 bd b6 fb fa 3c 68 4c 87 bc 5d ff 00 3d
       -0.033060938 0.030637603 -0.016515926 0.031493533
0003d0 fb 83 9c bc 4d 59 52 3d c4 86 06 3d a8 15 35 3d
       -0.019105902 0.051354695 0.032843366 0.044210106
0003e0 5c 27 13 3d 0c f4 18 bc ad f4 7a bd 36 eb 5d 3d
       0.035926208 -0.009335529 -0.061268497 0.054179393
0003f0 27 3f 73 3d ac 2d 7a 3d bd a7 94 3b 8c f0 31 3c
       0.0593864 0.061078712 0.0045365975 0.0108605735

bias f4 [3]
000000 e6 e9 71 3d 5b f6 8c 3b c7 29 c8 3c
       0.059060954 0.004301829 0.024433983
