models/classifier_ultimate.pth (torch, 5125 bytes, 2 tensors)

weight f4 [3, 256]
-0.23883542 -0.39391214 0.43624374 0.38109478 0.4858993 0.28598344 -0.4186151 -0.3092465
-0.49535933 0.3589114 -0.41369087 0.372826 0.59780395 0.6178605 0.5364839 0.50583273
-0.67547446 0.33174145 0.42357433 0.3658976 0.49133006 0.37743467 -0.39965022 -0.41756207
-0.3878588 0.52205145 0.43385053 -0.34603387 -0.58962613 0.24650525 -0.41599724 -0.4061077
-0.34567627 0.5467899 -0.5544562 -0.39288995 -0.4592213 -0.40492418 0.36024797 -0.39591432
-0.19350915 0.53108567 0.4414163 0.35281453 0.44165108 -0.055631176 -0.43549567 -0.338317
-0.55603665 -0.4478893 -0.40084836 -0.00966242 0.53328055 0.4460802 0.4046934 -0.08068251
-0.35150683 0.4722904 0.54783845 -0.592136 -0.324103 -0.43407384 0.19646439 -0.46851104
0.53942686 -0.45668143 -0.035489965 -0.5394765 0.3762916 -0.4756951 0.3446449 -0.61354923
-0.52506346 0.4445285 0.5254157 0.36666152 0.44616246 -0.30253434 -0.4061714 0.4604237
-0.56865185 -0.5161661 0.54103065 0.51381105 0.38403147 -0.43479732 0.39553505 -0.3793123
0.4940199 0.36706603 0.3702124 0.49111164 0.4370696 -0.45430785 -0.52846974 0.35931265
-0.34001613 -0.4373442 0.39168575 0.4482288 0.43479848 0.29669833 -0.3105387 0.39698118
0.2443842 0.2978056 -0.19679132 -0.61645204 -0.39425576 -0.43932676 0.17495441 0.400901
-0.38775042 -0.62747467 0.3640776 -0.3495947 0.44907504 -0.5667962 0.46578094 -0.42842585
-0.59473246 -0.47686815 -0.4052814 -0.13749798 -0.4247302 -0.388419 0.35350308 0.42250437
-0.38459665 0.57276225 0.102632076 -0.5649576 0.43225482 -0.17470755 0.051173512 0.41821942
-0.3928401 -0.48498103 0.3662546 -0.42573246 0.4242158 0.3601643 0.44629833 -0.3829136
-0.4659592 0.12378611 -0.41971684 0.07002473 -0.47637063 -0.16975378 -0.39648205 0.43035936
-0.47979555 -0.11527113 -0.56096935 -0.35958037 -0.35272375 -0.4889477 0.38773406 -0.37432337
-0.3493847 0.4324789 0.35457408 0.43983725 -0.31019497 -0.3145902 -0.34918585 0.5069484
-0.39291587 0.14851736 0.34586 0.4940703 -0.5866069 -0.079313055 0.57585466 -0.30091622
-0.361105 0.38502178 -0.29651532 -0.22883724 -0.643456 0.37990633 0.39142334 -0.5026071
0.5285129 0.2580847 -0.45913458 -0.6201415 0.43105686 -0.30010957 -0.17315336 0.44812128
-0.5864559 0.014341216 0.34421986 0.43300983 0.40785792 0.38598108 0.36163124 -0.41146323
-0.3929774 -0.42189354 -0.39510736 0.5484162 0.47450393 -0.47716117 0.4532077 0.66111517
0.4133518 0.6569537 0.66142803 0.42535526 -0.0065055047 -0.47192326 0.3862535 0.06783337
-0.54655313 0.44835758 -0.7088922 0.38935858 -0.40865514 -0.64682883 0.48923805 -0.49569678
-0.40819198 0.5044246 0.501072 -0.3600007 -0.31045336 0.023211136 0.45523882 0.13153844
-0.47158185 0.552471 -0.4900235 0.4873792 0.41281635 -0.41893214 0.5079817 -0.51914454
0.3742412 -0.36102638 -0.3674524 0.42949465 0.38547346 -0.32630652 -0.30341017 -0.3534829
-0.43220514 -0.39688084 -0.44052297 -0.47048524 0.4090699 -0.5936745 -0.39630133 0.47635347
00000000: 4691 74be daae c9be 575b df3e db1e c33e
00000010: cbc7 f83e 6c6c 923e b854 d6be 8f55 9ebe
00000020: bd9f fdbe 3cc3 b73e 4acf d3be 0de3 be3e
00000030: ae09 193f 1b2c 1e3f 0257 093f 417e 013f
00000040: e5eb 2cbf 04da a93e bcde d83e ee56 bb3e
00000050: 9d8f fb3e 1e3f c13e f49e ccbe b2ca d5be
00000060: 6e95 c6be 2aa5 053f a821 de3e 5a2b b1be
00000070: bdf1 16bf df6b 7c3e 97fd d4be 59ed cfbe
00000080: 7bfc b0be 6cfa 0b3f d7f0 0dbf df28 c9be
00000090: 0e1f ebbe 3952 cfbe 6c72 b83e 48b5 cabe
000000a0: 4327 46be 3bf5 073f 5101 e23e 1ba4 b43e
000000b0: 1720 e23e 84dd 63bd 4af9 debe e337 adbe
000000c0: 6b58 0ebf bf51 e5be ff3b cdbe 204f 1ebc
000000d0: 1385 083f a064 e43e f933 cf3e df3c a5bd
000000e0: b4f8 b3be 0cd0 f13e 243f 0c3f 3a96 17bf
000000f0: d4f0 a5be ed3e debe f62d 493e aee0 efbe
00000100: e117 0a3f 26d2 e9be ed5d 11bd 221b 0abf
00000110: 4ba9 c03e 4f8e f3be 4c75 b03e 9011 1dbf
00000120: 8f6a 06bf 3d99 e33e a581 063f 0fbb bb3e
00000130: 686f e43e c8e5 9abe b3f5 cfbe a8bc eb3e
00000140: 2b93 11bf 7623 04bf fc80 0a3f 1f89 033f
00000150: c69f c43e c19d debe 9283 ca3e 3935 c2be
00000160: 2df0 fc3e 14f0 bb3e 7b8c bd3e fc72 fb3e
00000170: 96c7 df3e 0a9b e8be cb49 07bf d4f7 b73e
00000180: 9816 aebe 94eb dfbe 098b c83e 3f7e e53e
00000190: e89d de3e d8e8 973e eefe 9ebe 1e41 cb3e
000001a0: da3f 7a3e fa79 983e aa83 49be cdcf 1dbf
000001b0: e4db c9be 70ef e0be 4027 333e e542 cd3e
000001c0: 3987 c6be 2ea2 20bf 6168 ba3e 14fe b2be
000001d0: 2aed e53e 8e19 11bf d77a ee3e a25a dbbe
000001e0: 6340 18bf 1028 f4be 0b81 cfbe 45cc 0cbe
000001f0: 3d76 d9be dbde c6be 5bfe b43e 7e52 d83e
00000200: dae9 c4be 8ca0 123f c430 d23d 10a1 10bf
00000210: 8150 dd3e 89e6 32be 519b 513d db20 d63e
00000220: 5622 c9be 6f4f f8be b985 bb3e 9bf9 d9be
00000230: d032 d93e 7567 b83e 3781 e43e 400d c4be
00000240: 3492 eebe 9283 fd3d 20e5 d6be 2069 8f3d
00000250: dae6 f3be efd3 2dbe b2ff cabe 1058 dc3e
00000260: c3a7 f5be 4513 ecbd b09b 0fbf eb1a b8be
00000270: 3598 b4be 5a57 fabe 1485 c63e 50a7 bfbe
00000280: 8de2 b2be e06d dd3e bc8a b53e 5932 e13e
00000290: e0d1 9ebe f711 a1be 7dc8 b2be 5fc7 013f
000002a0: 452c c9be ef14 183e 9014 b13e c8f6 fc3e
000002b0: df2b 16bf e26e a2bd 366b 133f b111 9abe
000002c0: c1e2 b8be 9321 c53e dbd0 97be 4f54 6abe
000002d0: 88b9 24bf 1583 c23e a468 c83e dcaa 00bf
000002e0: 9f4c 073f ae23 843e b013 ebbe 98c1 1ebf
000002f0: 7cb3 dc3e f6a7 99be 1d4f 31be 2770 e53e
00000300: f921 16bf 6bf7 6a3c 963d b03e 77b3 dd3e
00000310: c1d2 d03e 509f c53e bb27 b93e 4fab d2be
00000320: 5534 c9be 6e02 d8be 834b cabe 0165 0c3f
00000330: 2ef2 f23e 784e f4be d70a e83e d83e 293f
00000340: d9a2 d33e 1e2e 283f 5953 293f 2ac8 d93e
00000350: 212c d5bb ed9f f1be 05c3 c53e 39ec 8a3d
00000360: e8ea 0bbf 208f e53e f679 35bf 025a c73e
00000370: 3f3b d1be 9396 25bf 697d fa3e f8cb fdbe
00000380: 8afe d0be f821 013f 4146 003f 0352 b8be
00000390: bef3 9ebe 4825 be3c 1015 e93e 03b2 063e
000003a0: 2d73 f1be bd6e 0d3f 5ce4 fabe c489 f93e
000003b0: aa5c d33e 467e d6be 170b 023f a8e6 04bf
000003c0: 8b9c bf3e 73d8 b8be b922 bcbe b9e6 db3e
000003d0: c75c c53e a611 a7be 9458 9bbe b6fb b4be
000003e0: fe49 ddbe f733 cbbe 3a8c e1be 71e3 f0be
000003f0: 9c71 d13e 0dfb 17bf 02e8 cabe 9ae4 f33e

bias f4 [3]
0.05355799 -0.015921947 -0.058544833
00000000: 9f5f 5b3d be6e 82bc b5cc 6fbd
