models/classifier_invariant.pth (torch, 5133 bytes, 2 tensors)

weight f4 [3, 256]
0	0xbcd33161	-0.025780382
1	0xbcef6b7d	-0.02922606
2	0xbd5b9d71	-0.053616945
3	0x3d602566	0.054723166
4	0x3d649231	0.05580348
5	0xbd3f8ee8	-0.046767145
6	0xbcfe24c0	-0.031023383
7	0xbce9aa68	-0.028523639
8	0xbc88d862	-0.016704742
9	0xbd3f7015	-0.04673775
10	0x3b39876c	0.0028309477
11	0x3c753c23	0.014967951
12	0x3d17a253	0.03702004
13	0x3b71f592	0.0036920053
14	0xbb8d94a0	-0.004320696
15	0x3ce313a4	0.027719326
16	0xbd07477f	-0.03302717
17	0x3c768a3d	0.015047607
18	0xbcef8ad6	-0.029241007
19	0xbcadd971	-0.021221848
20	0xbd3f97f7	-0.046775784
21	0xbd6c55cf	-0.05769902
22	0xbc4b7b5d	-0.012419549
23	0x3b85eed3	0.004087308
24	0xbb54026c	-0.0032350076
25	0xbcde6a29	-0.02715023
26	0xbd49b0ad	-0.049240757
27	0xbd204792	-0.039130755
28	0xbd701653	-0.05861504
29	0xbcc3fd07	-0.023924364
30	0xbce419f2	-0.027844403
31	0xbcd5b0f0	-0.026085347
32	0xbc05c26c	-0.00816403
33	0xbd245feb	-0.040130537
34	0x3c04bc6e	0.008101566
35	0xbc59459c	-0.013261225
36	0x3d83e9df	0.06441092
37	0xbc0c4294	-0.008560795
38	0xbba3c346	-0.0049976436
39	0x3cec1e6d	0.028823102
40	0x3cb4c9ee	0.022068944
41	0x3d384f1e	0.044997327
42	0xbc9a8fab	-0.018867334
43	0xbd55cb88	-0.052196056
44	0x3cc3e527	0.02391298
45	0x3cc03a2f	0.023465244
46	0x3d3a45c6	0.045476697
47	0x3b9c5b8b	0.004771655
48	0x3ad81ad9	0.0016487493
49	0xbd04879e	-0.032355897
50	0xbcd38366	-0.025819492
51	0x3d10ed78	0.035382718
52	0x3c4985bd	0.012299952
53	0x3d7ad85a	0.061241485
54	0xbb25b76a	-0.0025286325
55	0xbba488da	-0.005021197
56	0xbc7b38a5	-0.015333329
57	0x3c9b41f2	0.018952344
58	0x3d6f327a	0.058397748
59	0xbc1312a0	-0.0089766085
60	0xbd1f88fc	-0.038948998
61	0x3c56c516	0.013108512
62	0xbd83adba	-0.0642962
63	0xbb73471c	-0.0037121242
64	0xbd1a30e3	-0.03764428
65	0xbd80ac71	-0.062828906
66	0xbd753ee1	-0.05987442
67	0x3d28a94d	0.041177083
68	0x39634bcc	0.00021676644
69	0xbbee4bae	-0.0072722053
70	0xbc695528	-0.014241494
71	0x3c1fb7d1	0.009748415
72	0xbd684798	-0.056708902
73	0xbd3fa97d	-0.046792496
74	0xbd6f1c90	-0.05837685
75	0x3b698a21	0.003563531
76	0x3ceb23e6	0.028703641
77	0xbd2dade6	-0.04240217
78	0xbd736b23	-0.059428345
79	0xbd16e41a	-0.03683863
80	0x3d199ccd	0.037503053
81	0x3d88aaca	0.066732004
82	0xbd05404f	-0.032532033
83	0xbbe3436c	-0.0069355275
84	0xbd3cf71a	-0.046134092
85	0xbc3c3973	-0.011488306
86	0xbd71fcca	-0.05907897
87	0xbd7ae428	-0.061252743
88	0xbcb091e0	-0.021553934
89	0x3d0624f6	0.032750092
90	0xbd4aee63	-0.04954375
91	0x3c84fadc	0.0162329
92	0x3d090a34	0.033456996
93	0xbb41dac5	-0.002957986
94	0x3d313a87	0.043268707
95	0xbc4f2070	-0.012642011
96	0x3d3f4c2a	0.046703495
97	0xbd76b5a7	-0.06023183
98	0x3d61024c	0.05493383
99	0xbca1a2f8	-0.01973103
100	0xbca926cf	-0.020648388
101	0xbc94751a	-0.018122245
102	0xbd2461cf	-0.04013234
103	0xbcbfdda1	-0.02342111
104	0x3d8441c1	0.06457854
105	0xbd79ec19	-0.061016176
106	0x3c279175	0.010227551
107	0xbd2131b0	-0.039354026
108	0x3d2e3a8e	0.04253631
109	0xbd3f2c7a	-0.046673276
110	0xba46ebcd	-0.00075882376
111	0xbcbb6cc2	-0.022879008
112	0xbbd47e27	-0.006484765
113	0x3cd1e62e	0.025622454
114	0x3cd55be4	0.026044793
115	0x3d1428c9	0.03617171
116	0x3d7c68a1	0.06162322
117	0x3ca1a430	0.019731611
118	0xbd312159	-0.043244693
119	0xbc14657f	-0.009057402
120	0xbd466026	-0.048431538
121	0xbd58f4e1	-0.05296791
122	0xbd6feb41	-0.058573965
123	0x3d628d3e	0.05531048
124	0x3d876226	0.06610517
125	0x3c87f60b	0.016596815
126	0x390ca2ae	0.00013412043
127	0x3d04165f	0.032247897
128	0xbd1986cb	-0.037482064
129	0x3bef09d3	0.0072948723
130	0x3c3b1a19	0.011419796
131	0xbd1d60e9	-0.0384225
132	0x3d241d97	0.04006728
133	0xbd348cf8	-0.04407975
134	0x3ccc9c44	0.024976857
135	0xbcf94be8	-0.030431703
136	0x3d017f7d	0.031615723
137	0x3c82f4ad	0.015985811
138	0xbd47a4d5	-0.04874118
139	0xbcba5bb3	-0.022748804
140	0x3cfcec5f	0.03087443
141	0x3c14d92d	0.009084982
142	0xbd578880	-0.05262041
143	0xbd273148	-0.040818483
144	0x3d3bd7e2	0.04586018
145	0xbd2da6b6	-0.042395316
146	0x3c9bffe5	0.019042918
147	0xbd61c2d2	-0.055117436
148	0x3d0bc87c	0.034126744
149	0x3c07b4e1	0.008282871
150	0x3d527ec8	0.05139044
151	0xbbb6b138	-0.0055753253
152	0x3d49c3aa	0.049258865
153	0x3d590bc6	0.052989744
154	0xbd7d5023	-0.061844002
155	0xbcbad6f1	-0.02280757
156	0x3d738443	0.059452306
157	0x3d0e9365	0.034808535
158	0x3d61797b	0.055047493
159	0xbd1cfe0a	-0.038328208
160	0xbd3739b4	-0.044732764
161	0x3bd21144	0.0064107496
162	0x3c298940	0.010347664
163	0x3d2e98ae	0.042626075
164	0x3d07ac4b	0.033123296
165	0xbc2449cc	-0.01002736
166	0x3c2f0269	0.010681727
167	0xbd0986bc	-0.03357576
168	0xbd133e18	-0.03594789
169	0xbd7cee92	-0.061750956
170	0x3ccf1245	0.025277266
171	0x3c8d6bce	0.01726332
172	0xbd16ae4b	-0.036787312
173	0x3d54aace	0.051920705
174	0xbd5c18f1	-0.053734723
175	0x3d5a7c9d	0.053341497
176	0xbc7862f9	-0.015160316
177	0x3d3379c0	0.04381728
178	0xbc9d7ca7	-0.019224478
179	0x3c87b48e	0.016565587
180	0x3cb1a2e5	0.02168412
181	0xbd5b2478	-0.053501576
182	0x3c1acfcb	0.009448956
183	0xbcc0582b	-0.023479542
184	0x3cd81488	0.026376978
185	0x3b2182eb	0.0024644684
186	0x3d3e0910	0.04639536
187	0x3bd3f197	0.0064680087
188	0xbd17b15c	-0.037034377
189	0x3c192f8a	0.009349713
190	0x3ca972e6	0.02068467
191	0x3c7277e8	0.014799096
192	0x3d40d01a	0.04707346
193	0x3c09aa33	0.008402395
194	0x3c2e265a	0.010629261
195	0x3cb19c47	0.021680964
196	0xbd7729c2	-0.060342558
197	0xbd7bcb3a	-0.06147311
198	0x3ca09f97	0.019607348
199	0xbcd71255	-0.026253859
200	0x3cd76e56	0.02629773
201	0xbd34cb14	-0.044138983
202	0x3c9a6f8f	0.018852023
203	0x3d7b5d68	0.061368376
204	0xbc377817	-0.011198065
205	0x3d60f25a	0.054918624
206	0x3d1bdd66	0.03805294
207	0x3d2094e4	0.039204493
208	0xbca9100d	-0.020637536
209	0xbc862b38	-0.01637803
210	0x3c22584f	0.00990875
211	0xbd3afa5b	-0.045648914
212	0x3d28156a	0.041036047
213	0xbadbe6ff	-0.0016777216
214	0xbcbda621	-0.023150505
215	0x3d392956	0.045205437
216	0xbd7593d4	-0.059955433
217	0x3cda7d7a	0.02667116
218	0xbd7c2105	-0.061554927
219	0x3be26fdf	0.0069103087
220	0x3b15bfc0	0.0022849888
221	0x3b86e168	0.004116226
222	0xb9127a49	-0.000139692
223	0xbc9214c8	-0.017832175
224	0x3d6f7142	0.05845762
225	0xbcc8a1f1	-0.024491282
226	0x3d364216	0.04449662
227	0x3d2909ae	0.041268997
228	0x3cca01d2	0.024659071
229	0xbc075ee3	-0.008262369
230	0xbd01b364	-0.03166522
231	0x3d1f4d9d	0.038892377
232	0x3cf36549	0.029711382
233	0xbc91747a	-0.017755736
234	0x3c72452a	0.014786998
235	0x3ca8f4e9	0.020624595
236	0xbd12bec6	-0.035826467
237	0x3d6b7d30	0.057492435
238	0x3d084b58	0.03327498
239	0xbaf3b992	-0.0018594733
240	0x3ce45d39	0.027876483
241	0x39ca64e5	0.00038603615
242	0x3d8544e0	0.065072775
243	0xbb9645a0	-0.0045859367
244	0xbb1e2d0a	-0.0024135732
245	0xbcf7c5db	-0.030245712
246	0xbc84e9cb	-0.016224762
247	0xbba108c5	-0.0049143755
248	0xbd725e28	-0.059171826
249	0xbd0decf1	-0.034649793
250	0x3d7c4095	0.061585028
251	0x3d00ea0e	0.031473212
252	0xbd84f137	-0.064913206
253	0x3c9fe225	0.019517014
254	0x3d1f8c0e	0.038951926
255	0xbd6b424f	-0.057436284

bias f4 [3]
0	0xbd746c38	-0.059673518
1	0xbba70795	-0.0050973394
2	0xbce50435	-0.027956108
