models/classifier_best.pth (torch, 5093 bytes, 2 tensors)

weight f4 [3, 256]
0	0x3cce3929	0.02517374
1	0x3d8b11c3	0.06790497
2	0xbc4be5c0	-0.012444913
3	0x3b9682c5	0.0045932257
4	0x3d5927ad	0.053016353
5	0xbd8128ec	-0.06306633
6	0x3d8b1bce	0.06792413
7	0x3d797021	0.06089795
8	0x3d300d58	0.042981476
9	0x3d8addeb	0.06780609
10	0xbc9e9a89	-0.019360797
11	0xbd88817c	-0.06665322
12	0xbcf4fcba	-0.029905666
13	0xbc93ff25	-0.018065998
14	0x3ca0d92b	0.019634804
15	0x3d287349	0.04112557
16	0x3c992444	0.01869405
17	0x3be5e17f	0.0070154066
18	0xbd836adb	-0.064168654
19	0xbcf7faa3	-0.03027088
20	0x3cbd61e8	0.023117974
21	0xbc3c808a	-0.0115052555
22	0x3d22fb5d	0.0397905
23	0x3d3da3a9	0.046298657
24	0xbcc988c6	-0.024601351
25	0xbcabcbff	-0.020971296
26	0x3cd347a1	0.025790991
27	0xbd2081eb	-0.0391864
28	0xbd047e69	-0.032347117
29	0x3c12c224	0.00895742
30	0x3bb9ad20	0.00566639
31	0xbd3ff813	-0.04686744
32	0x3c2d89d5	0.010591944
33	0xbd04e9bd	-0.032449473
34	0xbd327945	-0.043572683
35	0x3bc5fcd0	0.0060421005
36	0xbc795af9	-0.0152194435
37	0xbd130940	-0.035897493
38	0x3d36333e	0.044482462
39	0x3d8c7fe7	0.06860333
40	0xbcdb66f8	-0.026782498
41	0xbd83be00	-0.06432724
42	0x3d56ad02	0.052411087
43	0x3ca0b3d0	0.019616991
44	0x3d3a0317	0.045413103
45	0xbca9507e	-0.020668264
46	0xbc824e26	-0.015906405
47	0xbc592e2d	-0.013255638
48	0xbc93489b	-0.017978957
49	0xbc175372	-0.0092362035
50	0xbd5b1764	-0.053489104
51	0xbd9035c7	-0.07041507
52	0x3cedb059	0.029014753
53	0xbd1bc8e0	-0.038033366
54	0xbb06315d	-0.00204762
55	0xbbac5c3d	-0.005260019
56	0x3d204d0f	0.03913599
57	0x3d5cb622	0.053884633
58	0xbd523f7b	-0.05133007
59	0x3c868bea	0.016424138
60	0x3d70f874	0.058830693
61	0xbd26e9f6	-0.040750466
62	0x3d09bcb7	0.033627238
63	0xbd0fe71d	-0.035132516
64	0x3d1a4810	0.03766638
65	0x3d0f75a7	0.03502431
66	0xbce53e7c	-0.027983896
67	0x3d1e1537	0.03859445
68	0xbd81f1df	-0.063449614
69	0x3d12fe86	0.035887264
70	0x3d4c0949	0.049813543
71	0xbc714c03	-0.014727595
72	0xbcc87a09	-0.024472253
73	0x3d379757	0.044822063
74	0xbd13350a	-0.035939254
75	0xbc85c454	-0.016328968
76	0x3d21e199	0.039521787
77	0xbd0a3820	-0.03374493
78	0x3d292171	0.041291658
79	0x3d803267	0.062596135
80	0x3cbebd21	0.023283543
81	0xbd51c76d	-0.051215578
82	0xbd6317d6	-0.055442654
83	0xbd2c1c89	-0.0420194
84	0x3d37560c	0.044759795
85	0xbd087aac	-0.033320114
86	0xbc0b61a6	-0.008507168
87	0xbc3cb8b4	-0.011518646
88	0x3bc1b014	0.0059108827
89	0x3d67ca45	0.056589384
90	0x3d53dc31	0.051723663
91	0xbd0c15ac	-0.034200355
92	0x3d8434e0	0.064553976
93	0x3d888721	0.06666399
94	0xbc135a48	-0.008993693
95	0x3d37044b	0.04468183
96	0xbd7be143	-0.061494123
97	0xbc94356b	-0.018091878
98	0xbc733b24	-0.014845643
99	0x3cb913fb	0.022592535
100	0xbd02830e	-0.031863265
101	0x3c195e64	0.009360883
102	0xbbfa531f	-0.0076393033
103	0xbd85fdd4	-0.065425545
104	0xbd361ab6	-0.044459067
105	0xbd0fa7b1	-0.035072032
106	0xbcbad4c6	-0.022806536
107	0x3d48bffb	0.04901121
108	0xbd6eac11	-0.058269564
109	0x3d866144	0.06561521
110	0xbd3644ab	-0.04449908
111	0xbd56f9e7	-0.05248442
112	0xbd51d1bc	-0.05122541
113	0xbd188c02	-0.037242897
114	0x3d514aff	0.051096912
115	0xba0c4748	-0.0005351198
116	0xbcda918d	-0.026680732
117	0xbd09ae15	-0.033613283
118	0x3c7e3f15	0.01551797
119	0xbcfc1958	-0.030773804
120	0x3c8290cd	0.015938187
121	0xbbcfbfde	-0.006340011
122	0x3d472a5f	0.048624393
123	0x3d21616d	0.039399553
124	0x3d0d8fec	0.034561083
125	0x3ce254d9	0.02762835
126	0x3d679229	0.056535874
127	0x3c5ad3f9	0.013356202
128	0x3d369d24	0.044583455
129	0xbd2abe1a	-0.0416852
130	0xbc85b2f4	-0.016320683
131	0x3c4a2e53	0.012340146
132	0x3d0e395c	0.03472267
133	0xbd6e4818	-0.058174223
134	0x3d70d58c	0.058797404
135	0x3d1ee14c	0.03878908
136	0xbc1d6e76	-0.0096088555
137	0x3b44fc42	0.0030057584
138	0xbd5d768e	-0.05406814
139	0xb98ad3ca	-0.00026479206
140	0x3d14ea8c	0.036356494
141	0x3d395940	0.04525113
142	0xbd3ab745	-0.045584936
143	0xbc23b9cd	-0.009993029
144	0x3bf94bb4	0.0076079015
145	0xbd3bf44f	-0.045887288
146	0xbc18a260	-0.009316057
147	0x3d8ccbca	0.06874807
148	0x3d25e33a	0.040499903
149	0x3c5bce8d	0.013415945
150	0xbd429995	-0.04750975
151	0x3c9f677a	0.019458521
152	0xbd133432	-0.03593845
153	0x3cde4fdd	0.027137691
154	0xbd20276f	-0.039100107
155	0x3cb7ab5b	0.022420576
156	0x3d135354	0.03596814
157	0xbc6846e7	-0.014177061
158	0xbc8e307a	-0.0173571
159	0xbd27f475	-0.041004617
160	0x3cca6aad	0.02470907
161	0xbca3c41f	-0.019990979
162	0x3ca63ddf	0.020293174
163	0xbd4d262e	-0.05008524
164	0xbd5d7ce5	-0.054074187
165	0x3d70ac69	0.058758173
166	0x3d82f9a2	0.0639527
167	0x3b8fcb4f	0.00438825
168	0xbd0bc17a	-0.03412006
169	0xbbd63e7a	-0.0065382095
170	0xbd850873	-0.06495752
171	0xbcba1e43	-0.022719508
172	0xbcb7e5b7	-0.022448404
173	0xbbeaeebd	-0.007169573
174	0xbd7f32f3	-0.06230445
175	0x3d22c08a	0.0397344
176	0x3d1c45de	0.038152568
177	0x3d30d6da	0.04317365
178	0x3c5fe7df	0.013666122
179	0x3c32d7c1	0.010915698
180	0xbd348b92	-0.044078417
181	0xbc19803b	-0.009368951
182	0x3d0d5931	0.034508888
183	0xbbefd4d6	-0.007319073
184	0xbc53f668	-0.012937166
185	0x3bb7ee50	0.005613126
186	0xbd1db935	-0.038506705
187	0xbd1c627b	-0.038179856
188	0x3d79816b	0.06091444
189	0x3d25ff8f	0.040526923
190	0x3c7a0939	0.015260988
191	0xbd5158a9	-0.051109944
192	0xbd636171	-0.05551285
193	0xbd786420	-0.06064236
194	0x3ccef737	0.025264366
195	0x3bf79be8	0.0075564273
196	0x3d3117da	0.043235637
197	0xbd34d6f0	-0.044150293
198	0x3cdab4ac	0.02669748
199	0xbc5184ab	-0.012787978
200	0xbc4b1c96	-0.012396952
201	0xbc9c33c3	-0.01906765
202	0xbcfae239	-0.03062545
203	0x3d806e92	0.062710896
204	0x3cf06078	0.029342875
205	0xbc698c08	-0.014254577
206	0x3cc8ad47	0.024496688
207	0x3ca25fc9	0.019821065
208	0xbd5c0b3f	-0.053721663
209	0xbcbba3d9	-0.022905277
210	0xbd3cee57	-0.046125736
211	0xbd3a3649	-0.045461927
212	0x3c86bdf3	0.016447997
213	0x3b77f150	0.0037833042
214	0xbd40c4f0	-0.047062814
215	0xbd5cb692	-0.05388505
216	0xbd44b303	-0.04802228
217	0x3b446921	0.0029969888
218	0xbd33fd46	-0.043942712
219	0xbc38cc7d	-0.011279223
220	0xbc857809	-0.016292589
221	0xba83520e	-0.0010018961
222	0xbc308fa4	-0.010776434
223	0xbd925b04	-0.07146266
224	0x3d8307dd	0.06397984
225	0x3d40feba	0.047117926
226	0xbd830a9f	-0.0639851
227	0xbd2cef56	-0.042220436
228	0xbba780fd	-0.005111812
229	0x3d59e2c0	0.05319476
230	0xbcfbcaf2	-0.03073642
231	0x3d63fcc4	0.055660978
232	0xbb72d681	-0.0037054124
233	0x39adf11c	0.00033176772
234	0x3d124dcb	0.03571872
235	0x3c84b4ad	0.016199434
236	0x3d5e7f5d	0.05432068
237	0xbd3b0876	-0.045662366
238	0xbca988ae	-0.020695057
239	0xbc099329	-0.008396902
240	0xbc977f54	-0.018493332
241	0xbbe73f79	-0.007057127
242	0xbc9a0a5f	-0.018803773
243	0xbc5cd3f4	-0.013478268
244	0xbcb76c94	-0.022390641
245	0xbd56ec95	-0.052471716
246	0x3b28aa99	0.002573645
247	0xbd3184d5	-0.04333957
248	0xbc55da1f	-0.013052492
249	0xbc6c51bd	-0.014423785
250	0xbd908a24	-0.07057598
251	0xbc6a2df6	-0.0142931845
252	0x3c84172a	0.016124327
253	0xbd4eb49b	-0.050465208
254	0xbcda072b	-0.026614746
255	0xbc1a5767	-0.009420252

bias f4 [3]
0	0xbc86c055	-0.016449133
1	0x3be0ac9e	0.006856515
2	0xbd123da3	-0.035703313
