models/classifier_invariant.pth (torch, 5133 bytes, 2 tensors)

weight f4 [3, 256]
0.037717756 0.050040603 0.056620445 0.0064851763 -0.022200095 0.031742513 0.05451161 0.0013528134
0.0013671742 -0.008053101 -0.033451866 -0.030245166 -0.050287656 -0.0059504714 0.010807812 0.053811107
-0.0125255585 -0.011828687 0.06529265 -0.025357751 0.04160526 0.016797422 0.01161691 0.04053554
0.022241062 0.0010798059 -0.008947315 0.0165136 0.052987643 0.035352275 0.0010176813 -0.018231217
0.0516313 -0.027320508 -0.015939448 0.0067038145 -0.019627465 -0.011732727 -0.047548205 -0.008093569
0.01396563 0.007686983 -0.024227582 -0.037563175 0.018620344 0.04958495 0.03504612 -0.047234215
0.06064695 0.045001324 -0.024192244 -0.022814414 -0.02343729 -0.023499675 -0.03911193 -0.025982453
-0.0528486 0.031688944 -0.04092096 0.026941994 0.059136365 -0.020088233 -0.02544165 -0.03573377
-0.057460375 0.05756248 -0.0578171 0.04091871 -0.019118972 -0.0088519305 -0.044625584 0.023347927
0.012041761 -0.05970448 -0.0041320655 0.05493627 -0.0515576 0.0051132264 -0.02338823 -0.037395008
-0.009156011 0.06353562 -0.057029452 -0.016649527 -0.024344834 -0.013576218 0.00031989193 -0.06285443
0.006580489 0.0215531 0.004733465 -0.053051118 0.02332685 -0.004478401 -0.05665003 0.016593281
-0.05383516 -0.023783678 0.013100753 -0.049835894 -0.04463898 -0.046427727 0.029178426 0.014907495
-0.012933879 -0.0020451546 -0.038480014 -0.06497766 0.047463678 -0.030536324 -0.05249754 -0.036300283
0.0064830175 0.031104332 -0.022405192 -0.003334069 -0.012947858 -0.06268891 0.049011424 -0.06288579
-0.0020203288 -0.028240485 0.06350352 -0.0018549728 0.022904571 0.028409487 -0.0440833 0.00693763
0.019287301 -0.0007834377 -0.010460011 0.042606927 0.013288686 0.02178713 -0.005493869 0.014347914
-0.042154692 -0.020819275 -0.049738526 0.011715431 0.035400607 0.04406812 0.00743778 -0.016771685
-0.012360771 0.058974937 0.05704431 -0.038310334 -0.0038405287 -0.05828136 0.06540338 -0.021395572
-0.013575853 -0.04547174 0.058639273 0.039515533 0.015704527 -0.014024023 -0.05328286 -0.06501612
-0.0507741 0.05448182 -0.031460594 -0.016797226 -0.019653613 -0.01905875 -0.017929059 0.010148993
-0.032786142 -0.055236574 0.024336405 0.0071405526 0.03952614 -0.031823676 -0.018281795 0.04383524
0.0143517535 0.014975663 -0.03404828 -0.0154049955 0.017397843 0.023916837 0.06680349 -0.0030343377
-0.010505801 -0.019568656 -0.009128983 -0.0022083623 0.0015675083 0.0028170354 -0.022276148 0.010874214
0.03304362 -0.028307712 0.044823438 -0.0029305406 0.009902554 -0.047131833 0.027252955 0.0135941375
0.0027291602 0.06062684 0.015460091 -0.029794674 0.04232064 0.015487622 0.028664414 -0.06368927
-0.045453288 -0.034949027 0.020665914 -0.01885633 -0.035290815 0.040047135 0.019492203 -0.037007987
0.016379874 -0.041110218 0.02824139 -0.019000433 -0.055521745 -0.03195694 -0.015758585 0.03586784
0.014163476 -0.031992245 -0.031107862 -0.008631493 -0.042456716 0.05669738 0.06337517 -0.031103011
0.011535199 -0.030880934 0.035806596 -0.02321007 -0.030733237 0.035873007 -0.03914512 -0.016408581
-0.063433014 0.051404547 0.0004750862 0.021411043 -0.0016673541 0.0307915 -0.006601776 0.05109334
0.0047175353 0.03720933 0.0060453494 0.005457468 -0.008139258 0.032010306 0.054439045 0.0019198866
00000000: ef7d 1a3d 60f7 4c3d d7ea 673d 9a81 d43b
00000010: f9dc b5bc 7004 023d 9147 5f3d e350 b13a
00000020: c132 b33a 27f1 03bc d304 09bd b6c4 f7bc
00000030: 6efa 4dbd 2cfc c2bb 4013 313c 0969 5c3d
00000040: 0038 4dbc 1ccd 41bc 27b8 853d 0fbb cfbc
00000050: 476a 2a3d bf9a 893c da54 3e3c 9808 263d
00000060: e332 b63c 4688 8d3a c297 12bc 8747 873c
00000070: 9209 593d 8ccd 103d b863 853a a259 95bc
00000080: 587b 533d 42cf dfbc 7293 82bc acab db3b
00000090: c7c9 a0bc a03a 40bc e8c1 42bd e49a 04bc
000000a0: 19d0 643c 16e3 fb3b ec78 c6bc d8db 19bd
000000b0: b189 983c 9719 4b3d 858c 0f3d aa78 41bd
000000c0: f068 783d 4f53 383d d02e c6bc 4be5 babc
000000d0: 8fff bfbc 6482 c0bc d533 20bd 27d9 d4bc
000000e0: c677 58bd 44cc 013d bd9c 27bd 75b5 dc3c
000000f0: f938 723d 1490 a4bc 026b d0bc 935d 12bd
00000100: 925b 6bbd a3c6 6b3d a0d1 6cbd 619a 273d
00000110: 649f 9cbc b007 11bc 51c9 36bd 2744 bf3c
00000120: ce4a 453c af8c 74bd 4766 87bb db04 613d
00000130: 102e 53bd da8c a73b ac98 bfbc 822b 19bd
00000140: 1803 16bc f71e 823d b797 69bd 9764 88bc
00000150: d16e c7bc c96e 5ebc 2bb7 a739 d3b9 80bd
00000160: 25a1 d73b 2090 b03c 2f1b 9b3b 214c 59bd
00000170: f317 bf3c 8dbf 92bb dd09 68bd a2ee 873c
00000180: 4282 5cbd fdd5 c2bc 8aa4 563c b920 4cbd
00000190: 5dd7 36bd 002b 3ebd 9807 ef3c 913e 743c
000001a0: 9fe8 53bc 0008 06bb 389d 1dbd 0213 85bd
000001b0: 4669 423d 5027 fabc a907 57bd 9baf 14bd
000001c0: 7e6f d43b 83ce fe3c 188b b7bc 6580 5abb
000001d0: 4123 54bc 0b63 80bd 34c0 483d 44ca 80bd
000001e0: 7e67 04bb 9758 e7bc 220e 823d 8f22 f3ba
000001f0: 5ea2 bb3c 03bb e83c b190 34bd 0f55 e33b
00000200: 6700 9e3c 9d5f 4dba 7760 2bbc 9a84 2e3d
00000210: cab8 593c ec7a b23c ea05 b4bb 8313 6b3c
00000220: 66aa 2cbd 2f8d aabc a0ba 4bbd 14f2 3f3c
00000230: 3a00 113d c680 343d 9fb8 f33b c664 89bc
00000240: d584 4abc b48f 713d 4ba7 693d 4ceb 1cbd
00000250: 61b1 7bbb 6fb8 6ebd 35f2 853d c445 afbc
00000260: 416d 5ebc 9340 3abd bc2f 703d 0adb 213d
00000270: c8a6 803c 04c5 65bc 213f 5abd 2c27 85bd
00000280: 81f8 4fbd 5428 5f3d d3dc 00bd 569a 89bc
00000290: 9d00 a1bc 1821 9cbc f6df 92bc f647 263c
000002a0: c34a 06bd bf3f 62bd 245d c73c 4cfb e93b
000002b0: 29e6 213d 8b59 02bd b4c3 95bc 958c 333d
000002c0: 9e23 6b3c 7c5c 753c 3676 0bbd 3c65 7cbc
000002d0: ec85 8e3c 3eed c33c 45d0 883d bddb 46bb
000002e0: 8620 2cbc 724e a0bc bb91 15bc 2cba 10bb
000002f0: da74 cd3a 039e 383b 787c b6bc c229 323c
00000300: bf58 073d 93e5 e7bc c898 373d 500e 40bb
00000310: 523e 223c 4f0d 41bd 9741 df3c f2b9 5e3c
00000320: b6db 323b d953 783d 524c 7d3c f613 f4bc
00000330: 6858 2d3d cbbf 7d3c a2d1 ea3c 856f 82bd
00000340: 3a2d 3abd b626 0fbd 904b a93c 9778 9abc
00000350: 1a8d 10bd 7708 243d 1dae 9f3c b095 17bd
00000360: 162f 863c 3063 28bd 7d5a e73c cca6 9bbc
00000370: c56a 63bd 48e5 02bd 2618 81bc 28ea 123d
00000380: ed0d 683c 4d0a 03bd ead5 febc 1b6b 0dbc
00000390: 18e7 2dbd 833b 683d d7ca 813d becb febc
000003a0: 22fe 3c3c 03fa fcbc f0a9 123d 0b23 bebc
000003b0: 45c4 fbbc 93ef 123d a256 20bd 4a6b 86bc
000003c0: 2be9 81bd 938d 523d fe14 f939 3666 af3c
000003d0: 1f8b daba 753e fc3c b653 d8bb 4047 513d
000003e0: 8e95 9a3b cf68 183d 1118 c63b 8fd4 b23b
000003f0: 865a 05bc 3d1d 033d 7afb 5e3d b4a4 fb3a

bias f4 [3]
0.043302275 0.03762732 -0.025537683
00000000: ba5d 313d 1b1f 1a3d 6734 d1bc
