models/classifier_dann.pth (torch, 5029 bytes, 2 tensors)

weight f4 [3, 256]
-0.059366077 -0.040971465 -0.035485618 -0.061263468 -0.0045264605 -0.036763784 -0.06082043 -0.015280411
-0.025243144 0.0027991543 -0.064377375 -0.040913586 0.0529296 -0.010687908 0.022692455 0.03029172
0.024678906 -0.011291735 0.0277955 0.042799626 0.04664967 0.0376599 0.015031336 -0.032109927
0.032711327 0.010899798 -0.055917256 0.07050855 0.018400285 -0.020590456 -0.0023617365 0.014022518
-0.069931366 -0.0061379466 -0.020648295 -0.029002013 -0.07565439 -0.03457262 0.03689226 -0.045276813
-0.039195556 0.0366513 -0.004923458 0.009394023 -0.050381828 0.00017755474 0.023591513 -0.029798402
-0.033799183 0.0636485 -0.026519822 0.06501334 0.018462792 0.0056609334 0.030249674 0.008891651
0.03872063 -0.06389301 -0.0035608143 -0.060124762 0.03448548 0.028967258 -0.06896779 0.011583852
0.006195243 -0.028698428 -0.018131861 -0.045841433 0.054348215 -0.021461247 0.024715 0.025898732
0.013836688 -0.059819564 -0.027045794 0.023721028 -0.027443666 0.013251262 0.03156712 -0.01628917
0.020337919 0.0385566 0.019221865 0.023811158 -0.000907754 0.048076402 0.05285029 0.021110792
0.072754085 -0.029220812 0.013721896 -0.058219783 0.06778 -0.0070020077 0.0008558754 0.012239144
-0.018083513 -0.0036286511 -0.051749706 0.029071156 0.01764151 -0.054154202 -0.057252377 0.04328689
-0.05203767 0.020358508 -0.00794518 0.03718518 0.049499236 -0.02582317 -0.028706467 -0.032196037
0.015241738 0.002199503 0.06822503 -0.05106212 0.05056476 -0.038948517 0.058035374 -0.007894935
0.06481816 -0.021212084 -0.018910687 -0.048187237 0.057321824 -0.004690328 0.04917599 -0.01914712
-0.009255558 0.030089851 -0.029232355 0.037486244 0.049091008 -0.026105044 -0.035030216 0.024896894
0.003367848 -0.05915065 0.06587132 0.00033941114 -0.03638301 -0.038415127 -0.055795677 -0.04670844
0.06056394 -0.019673556 -0.029095367 -0.06467086 -0.024898766 -0.022352206 0.023590494 0.04707082
-0.025882049 -0.002785209 0.036114752 0.072170176 0.043126658 -0.005033221 0.036651738 0.04109457
-0.009724524 -0.03451716 -0.006955436 0.054052193 -0.053141717 0.07121512 0.061204243 -0.0248102
0.0151401535 -0.0096955765 -0.00881737 -0.02137682 -0.06345793 -0.021800855 -0.017468605 -0.031780526
0.03723913 0.038669366 -0.048054423 -0.036227047 -0.006083055 0.052505225 -0.00015061426 -0.058886804
0.06380918 0.0023086346 -0.027726255 -0.064694986 0.060187966 0.006934056 0.051311437 -0.014517258
-0.068283156 -0.050791565 -0.034285024 -0.005098324 -0.013262991 0.05928354 -0.013123996 -0.030595293
0.007910248 0.039337695 -0.042629454 -0.05144126 -0.06968268 0.004686335 0.023434183 0.018333763
-0.028258832 0.07064314 -0.049439512 -0.0028342144 0.06315138 0.0027416805 -0.03161099 -0.037824504
-0.010512706 0.0654102 -0.03632594 0.014659815 0.029236024 0.017422767 -0.04423656 -0.017057974
0.029334467 -0.041170843 0.03808635 -0.03976456 -0.051532626 0.047568567 -0.014166332 0.015132273
0.027416764 -0.01981277 -0.04124721 0.04941063 0.021627467 0.031996567 -0.018538289 -0.00915362
-0.010776007 0.06818752 0.062336743 0.010871845 -0.059022814 0.058450967 0.043406226 -0.022542624
0.041614845 -0.073542215 -0.0044780746 -0.026327705 0.0452569 -0.041611254 -0.0676253 -0.0134518985
00000000: d829 73bd b2d1 27bd 5e59 11bd 67ef 7abd
00000010: b452 94bb 9f95 16bd d81e 79bd b05a 7abc
00000020: b6ca cebc 0472 373b 49d8 83bd 0195 27bd
00000030: b5cc 583d 561c 2fbc 87e5 b93c 5726 f83c
00000040: 6b2b ca3c f800 39bc 63b3 e33c a94e 2f3d
00000050: b913 3f3d 4441 1a3d fe45 763c b385 03bd
00000060: 50fc 053d 1195 323c 7e09 65bd c966 903d
00000070: 32bc 963c 51ad a8bc 5dc7 1abb b4be 653c
00000080: 2d38 8fbd d420 c9bb 9d26 a9bc a195 edbc
00000090: b0f0 9abd 059c 0dbd 571c 173d 2e74 39bd
000000a0: 858b 20bd ac1f 163d f654 a1bb 63e9 193c
000000b0: 2d5d 4ebd fd2d 3a39 fd42 c13c c71b f4bc
000000c0: 0371 0abd 255a 823d 1940 d9bc b725 853d
000000d0: 483f 973c 5a7f b93b 2ace f73c 4aae 113c
000000e0: 8699 1e3d 57da 82bd 8d5c 69bb 6245 76bd
000000f0: a640 0d3d be4c ed3c fc3e 8dbd 32ca 3d3c
00000100: 7701 cb3b f718 ebbc 4589 94bc 3ac4 3bbd
00000110: 3c9c 5e3d 7fcf afbc 1d77 ca3c 9429 d43c
00000120: 47b3 623c 5c05 75bd 248f ddbc 9a52 c23c
00000130: 8ad1 e0bc d21b 593c 864c 013d de70 85bc
00000140: b59b a63c 87ed 1d3d 2c77 9d3c 9e0f c33c
00000150: 57f6 6dba c3eb 443d 8c79 583d 8af0 ac3c
00000160: 1800 953d 7c60 efbc ced1 603c de77 6ebd
00000170: 3ed0 8a3d 1971 e5bb d35c 603a b186 483c
00000180: e023 94bc aace 6dbb 80f7 53bd a226 ee3c
00000190: ee84 903c ccd0 5dbd 7881 6abd 984d 313d
000001a0: 7425 55bd e3c6 a63c 802c 02bc 7d4f 183d
000001b0: b6bf 4a3d 1d8b d3bc d329 ebbc fedf 03bd
000001c0: 7cb8 793c 8925 103b 91b9 8b3d 8326 51bd
000001d0: fe1c 4f3d 7b88 1fbd 80b6 6d3d c259 01bc
000001e0: 62bf 843d f7c4 adbc 96ea 9abc fb5f 45bd
000001f0: 4aca 6a3d 53b1 99bb c36c 493d 6cda 9cbc
00000200: a0a4 17bc fe7e f63c b178 efbc 2d8b 193d
00000210: a713 493d 3fda d5bc d87b 0fbd 92f4 cb3c
00000220: 1db7 5c3b f447 72bd 8be7 863d fef2 b139
00000230: 5a06 15bd 2e59 1dbd 028a 64bd 5951 3fbd
00000240: e511 783d 702a a1bc 6859 eebc 2872 84bd
00000250: 7ff8 cbbc f91b b7bc da40 c13c 55cd 403d
00000260: 9706 d4bc 0e88 36bb 10ed 133d f5cd 933d
00000270: 94a5 303d b8ed a4bb 2220 163d c852 283d
00000280: 9c53 1fbc de61 0dbd 6dea e3bb d565 5d3d
00000290: 21ab 59bd 3cd9 913d 4db1 7a3d c33e cbbc
000002a0: 680e 783c 32da 1ebc bb76 10bc 711e afbc
000002b0: 3bf6 81bd b597 b2bc 521a 8fbc 4c2c 02bd
000002c0: 0f88 183d c563 1e3d b7d4 44bd d062 14bd
000002d0: 5d54 c7bb b80f 573d 35ee 1db9 4a33 71bd
000002e0: 63ae 823d 764c 173b 2c22 e3bc ce7e 84bd
000002f0: a887 763d 1437 e33b f12b 523d cbd9 6dbc
00000300: 0ad8 8bbd d10a 50bd 746e 0cbd d70f a7bb
00000310: 044d 59bc 4cd3 723d 0706 57bc fba2 fabc
00000320: fc99 013c 9020 213d 399c 2ebd 12b4 52bd
00000330: cbb5 8ebd d48f 993b 0bf9 bf3c b030 963c
00000340: 117f e7bc 5aad 903d 1681 4abd 3abe 39bb
00000350: 8355 813d c4ad 333b 877a 01bd deed 1abd
00000360: 7c3d 2cbc c8f5 853d 82ca 14bd b82f 703c
00000370: 6380 ef3c 31ba 8e3c 6531 35bd 2abd 8bbc
00000380: d64e f03c c2a2 28bd 6f00 1c3d 2ae0 22bd
00000390: e013 53bd 42d7 423d e719 68bc 5aed 773c
000003a0: 1f99 e03c 644e a2bc d6f2 28bd cd62 4a3d
000003b0: 162c b13c d50e 033d 9cdd 97bc 11f9 15bc
000003c0: d98d 30bc e6a5 8b3d d054 7f3d d31f 323c
000003d0: e8c1 71bd 486a 6f3d baca 313d 4fab b8bc
000003e0: 5474 2a3d 4d9d 96bd d0bc 92bb 33ad d7bc
000003f0: 4d5f 393d 9070 2abd 227f 8abd 5a65 5cbc

bias f4 [3]
-0.007939123 -0.065439425 -0.053236734
00000000: 1813 02bc 1b05 86bd c30e 5abd
