models/classifier_invariant.pth (torch, 5069 bytes, 2 tensors)

weight f4 [3, 256]
000000 9b da ec 3b a5 44 37 3c 65 ca 91 3d d0 e0 6b 3d
       0.0072282082 0.0111858 0.07118682 0.057587445
000010 ff 76 8b 3d 85 5a 8f 3c ae f4 ad bc 59 4c 81 3d
       0.06809806 0.017499218 -0.021234836 0.0631339
000020 41 94 54 bb 1d 22 df 3c 6b 99 e8 3c fd 65 ce bd
       -0.0032437 0.027237946 0.028393468 -0.100780465
000030 53 47 57 3d 72 fa d0 bb d1 99 62 bd 14 77 fc bb
       0.052558254 -0.0063775117 -0.055322472 -0.007704625
000040 b0 36 f6 bc fd a2 58 bd 84 2f 7e bd 0f 5a 92 3d
       -0.030055374 -0.052889813 -0.062057033 0.071460836
000050 ec e7 2e bd b2 a0 b2 3b d5 47 0c bd e9 c9 ee bc
       -0.042701647 0.0054512853 -0.034248192 -0.029149013
000060 59 fc 8e bd d1 2d 74 bd 80 0d b2 bc 52 0e 42 3d
       -0.06981725 -0.059614006 -0.021734953 0.04737694
000070 62 2f 10 bd 08 22 5b 3c 05 c8 8b bd b6 2f 94 bc
       -0.035201438 0.013374813 -0.0682526 -0.018089157
000080 bb a9 8c 3d f3 8c b9 3d 9e 5c ed 3c 9a 28 bc bd
       0.06868311 0.09060087 0.028974827 -0.09187432
000090 5e 04 c9 bc 8c b0 9e bc 51 10 e6 bd 2a f4 fa 3c
       -0.024538215 -0.019371293 -0.11233581 0.030634005
0000a0 12 2d 55 3d 54 4b 8e bd b6 5d bf 3d 92 1c 99 3a
       0.052044936 -0.069479614 0.09344046 0.0011681488
0000b0 6c 7e b4 bd cf 0e 8b bd 1d 27 83 3d 91 94 3c 3d
       -0.088131756 -0.06789934 0.06403945 0.04604012
0000c0 ad 47 5d bd a7 c3 80 3d e9 97 32 3d 82 ac 48 bd
       -0.054023433 0.06287318 0.043601904 -0.04899264
0000d0 04 e8 a2 bc ac 52 f0 bc c6 00 a9 3c 50 20 c2 3d
       -0.019886024 -0.029336296 0.020630252 0.09478819
0000e0 d9 d7 27 bc 22 0b 08 3c d2 f0 e4 3d f7 58 6b 3d
       -0.010244333 0.0083034355 0.11178745 0.05745789
0000f0 c2 f3 0e bd 0c 7e 93 3d 00 12 46 bd 52 a8 84 bd
       -0.034900434 0.07201776 -0.04835701 -0.06477417
000100 5f 6e 95 3b ec 1a 8c 3d a9 53 50 3d 71 b1 9b bd
       0.0045602764 0.068410724 0.050861035 -0.07602204
000110 2c ac 7f bd b8 f6 e3 bc 08 8c b5 bd 3e eb ce bd
       -0.062420055 -0.027827606 -0.088645995 -0.10103463
000120 70 e0 cd 3c 2e c0 91 bb d1 d9 1a bd a5 77 7f 3d
       0.025131434 -0.0044479584 -0.037805382 0.06236996
000130 c2 c9 0a 3a e3 71 bc 3d 9d 68 5c b9 57 8c 65 3d
       0.00052943465 0.0920141 -0.00021019806 0.05604204
000140 39 e3 a1 bc 0c 17 b1 3c 35 ec 64 bc 92 e9 71 bd
       -0.019761669 0.021617435 -0.013972332 -0.05906064
000150 4f 2d c3 bd 02 04 78 3c 0f 3d a3 bd 7d d8 8e 3d
       -0.09530126 0.015137674 -0.079706304 0.069748856
000160 5f 8d 84 3d ac 9f 9e bd 49 af 81 3d 8a 15 78 bd
       0.06472277 -0.07745299 0.06332261 -0.060567416
000170 28 0f cd 3c b1 51 68 3d 25 28 7c 3d e7 6e 5a 3d
       0.025031641 0.056718532 0.061561722 0.05332842
000180 8e da 95 3c 92 47 48 3d 31 a1 74 3d b7 85 2e 3c
       0.018292692 0.04889638 0.059724037 0.010651997
000190 e1 7b 7d 3d cf aa 65 3c e0 9c 1d bc d1 fd b1 3d
       0.06188572 0.014017775 -0.009619921 0.0869099
0001a0 a7 0a 98 3a f6 17 69 3d e7 49 e5 bc d3 ef 92 3d
       0.0011599854 0.056907617 -0.027989341 0.07174649
0001b0 b4 d0 cb bb c4 96 8f bd 80 25 61 bd c2 84 21 bd
       -0.0062199477 -0.07011178 -0.054967403 -0.03943325
0001c0 be a8 a0 3d 94 a5 42 3d 47 41 bf bc 2c 05 0b bc
       0.07844685 0.04752119 -0.023346556 -0.00848512
0001d0 f8 f4 97 bd e1 47 57 bc 61 4e 70 bd 13 96 7b 3d
       -0.07419771 -0.013139696 -0.058668498 0.06142242
0001e0 bd 54 d2 3c 9f 0c 9f 3d ef 62 d1 3c f3 52 88 3c
       0.025675172 0.07766079 0.02555987 0.016641116
0001f0 35 c9 7e bd 82 af a7 3d e8 5d 5b bd f7 0b d0 bc
       -0.062203605 0.08187772 -0.053556353 -0.02539633
000200 64 15 b1 bd 38 f6 52 bd bf 0f 92 bd 96 73 3a bd
       -0.08646658 -0.051504344 -0.071319096 -0.045520388
000210 c7 c1 91 3d 9f ff b2 bc e2 e9 a9 bc 53 02 48 3d
       0.07117038 -0.021850405 -0.020741407 0.04883034
000220 23 5d bd bd ce 5d af 3b 66 42 bb bd 86 6b 3b 3d
       -0.0924628 0.0053517586 -0.09143524 0.04575684
000230 be 96 01 bd ed d3 0f 3d 07 42 59 bb 6c f4 77 bc
       -0.0316379 0.035114218 -0.0033150928 -0.015133958
000240 91 73 8e bd b0 ae 6d bd 98 7c b7 3d 7d 8f e8 3b
       -0.06955636 -0.058027923 0.08959311 0.0070971833
000250 4a 12 a1 bd 3d 25 31 bd d1 4e f6 bb ae c1 03 3d
       -0.078648165 -0.043248404 -0.00751672 0.03216713
000260 c8 e5 aa 3d d0 ba 9d bd 70 28 90 bd b2 8c 41 bd
       0.083446085 -0.07701647 -0.07038963 -0.047253318
000270 fa 03 5a bd cb 2c 87 bd 73 4a 84 bd 4e 74 d4 3d
       -0.05322645 -0.066003405 -0.064595126 0.10373746
000280 cb b8 ac bd 28 bc 89 3d 8e ad 12 3d a7 70 84 bd
       -0.08433684 0.06725341 0.035810046 -0.06466799
000290 7e 7f cc 3d 1a 37 d1 bd bf 75 0c 3d 0b 85 2b bd
       0.09985255 -0.10215588 0.03429198 -0.041874927
0002a0 bf 40 2b 3d 1a a7 a1 3d 37 22 36 3d 79 8d 87 bd
       0.041809794 0.078932 0.044466224 -0.06618781
0002b0 85 17 ac bd fe c0 f1 bc 72 56 54 3a 0c da c4 bc
       -0.084029235 -0.029510971 0.00081000396 -0.024029754
0002c0 ee ee f4 bc a4 77 95 3d 67 ed 42 3d 13 62 1a 3d
       -0.029899087 0.0729821 0.047589686 0.037691187
0002d0 33 3c d2 bd 95 ac a6 3d 2b 4a 91 bd 92 1f 0e bc
       -0.10265388 0.08138386 -0.070942245 -0.008674519
0002e0 6b 1a e6 bc 44 6b 8e 3d ca 89 41 bc cd 03 95 bc
       -0.028088769 0.06954053 -0.011812637 -0.018190289
0002f0 0c 40 8c bd 25 49 2a bb e5 77 a3 3d 25 3e 5d 3d
       -0.068481535 -0.002598354 0.079818524 0.054014344
000300 5a 3a b2 bd 02 03 42 bc 34 07 d9 3d ab 3c 99 bc
       -0.08702536 -0.011841537 0.10597077 -0.018705687
000310 11 24 63 3c a4 08 4c 3c d9 66 0f 3d 0a 30 71 bd
       0.013863579 0.012453232 0.035010193 -0.058883704
000320 fb c6 9e bd df dd fd ba 00 f0 07 3d 8d 9c 0a 3d
       -0.07752796 -0.0019368491 0.033187866 0.033840705
000330 3c ef d2 3c ae 46 cc 3d f7 ba 53 bd ed 30 88 3d
       0.025748841 0.099744186 -0.051691975 0.06649957
000340 c4 32 de 3d 80 43 3f bd de a1 15 3c 7c a0 9f 3d
       0.108495265 -0.046695232 0.00913283 0.07794282
000350 e8 15 aa bc e7 47 53 bd dd 79 1a 3d a6 b2 97 bc
       -0.020762399 -0.051582243 0.037713874 -0.018517803
000360 86 21 66 3d f8 d5 0b 3d a3 80 09 bd a6 e3 4a bc
       0.056184314 0.034139603 -0.033569943 -0.012383377
000370 55 19 85 bd 38 14 d4 bd de 86 e7 3b 4b d4 9d 3d
       -0.06498972 -0.10355419 0.007065638 0.07706507
000380 27 6d 63 bb 23 a1 3b bd 90 1d c8 3a 6a 33 85 bd
       -0.003470251 -0.04580797 0.0015267599 -0.06503947
000390 e6 bf 78 3d 7c 7b 62 bd a5 c5 91 3d 5d f5 39 bc
       0.060729884 -0.055293545 0.07117776 -0.011350003
0003a0 38 67 ab 3d 7f ff 65 3c 3e 37 a0 bd 99 46 4c bd
       0.08369297 0.014037966 -0.078230366 -0.049872015
0003b0 49 f1 4c bd b9 1a c1 bd 30 8e 3d bd 90 f9 bb 3d
       -0.050034795 -0.09428925 -0.04627818 0.0917846
0003c0 8d 47 92 3d bc 16 af bd 62 f9 a9 bc 55 6e aa 3d
       0.071425535 -0.08549258 -0.020748798 0.083218254
0003d0 d6 fa 6f bd 6f c9 7b bc 0f 5a 32 bc 78 db 90 bc
       -0.058588825 -0.01536785 -0.010885729 -0.017682776
0003e0 a7 82 c4 3d 8c e4 c1 3d 34 de 85 bd 49 1b 70 3d
       0.095952325 0.0946742 -0.065365225 0.05861977
0003f0 e8 ea 3d bc e4 44 ed 3d c5 74 b5 3d c2 72 6f bd
       -0.011591651 0.115854055 0.08860163 -0.05845905

bias f4 [3]
000000 c9 01 9a 3c ad e6 f1 bc f4 fc 0f bb
       0.01879968 -0.02952894 -0.002197084
