models/classifier_dann.pth (torch, 5093 bytes, 2 tensors)

weight f4 [3, 256]
00000000: 5daf 6bbd 7fd1 fc3c 3b45 ca3c b440 acbd
00000010: f093 313c 7167 4abd 808a 20bd e654 773d
00000020: 6219 21bd cc4e 0f3b 4059 313d 4dd1 12bd
00000030: adff bdbd 6568 873c 9e49 74bd b24f 373d
00000040: 9c0b 93bd 2677 a63d 9d7b b4bd fef0 02bd
00000050: e9b6 ebbb 1188 bd3d e022 58bd 07f6 8e3c
00000060: ad49 763c 1928 c63d 53e1 4d3d 557f 78bd
00000070: 6f8a 3ebc 49f9 20bb 6982 8bbd 3a89 6b3d
00000080: af2f 323d 75eb 363d d49f aabc d87f 5a3d
00000090: 5eff c43c 58b5 f0bc f5e1 b5bd f5e2 4f3d
000000a0: ab52 533c 8812 a5bc 5f80 213d b7be 34bd
000000b0: 9361 8e3d fd61 b5bc 537b 343d ed55 9b3c
000000c0: 5124 7b3d 9b05 19bc 2850 63bd f481 153c
000000d0: 0a10 f6bd 99e0 91bd 54ba 9f3d 26c8 b3bb
000000e0: 6f98 fe3c 9bd9 83bc f156 b43d a018 5a3d
000000f0: 3bb9 d03c 366b 42bc 12c1 ef3c 92aa 163b
00000100: 8f58 a1bd e092 9ebd 1999 523c aab1 ff3b
00000110: 0c51 403d 4b26 53bd 08ee 4b3b 58ea 0dbd
00000120: 90d3 4d3d dd2b 1dbd 816f 82bd 84e9 4d3d
00000130: 0102 ddbc ed22 a8bd 9973 8dbc 4f4c 26bd
00000140: 1414 d6bc 3247 98bc 505b 36bd 778b 223d
00000150: a792 ef3a 0b5a 9fbc 6330 4bbd 8ea1 5a3c
00000160: b717 e3bc e69e 2dbc ea50 3b3d 48bc 42bd
00000170: 31a7 c03d 429c ed3c c791 6fbd d5cc 5b3c
00000180: adf2 af3b bf27 c53c 9df8 aa3d 2ffc 263d
00000190: c294 293d dc34 7c3d e3ee 6bbd 5564 ad3d
000001a0: 7613 2e3d 3558 b5bc 7f9e 41bb fa9f 3dbd
000001b0: c29d 443c 2c07 8dbd 0521 b2bd 6172 023a
000001c0: 5895 95bd dc29 743d 0750 7e3d 27de 25bd
000001d0: 3963 963c 0d1e 8a3d d21c 003d 58b6 b73d
000001e0: 5ec9 dfbc b7ea 803d 231d 45bd b123 8ebd
000001f0: 8836 6a3d 8464 88bd 36df 6fbd 36e6 eb3c
00000200: 2f66 20bd 7d72 9e3c 7ab2 cf3c 8f45 8dbc
00000210: 5534 2b3d a204 ea3c 6a7d 73bd 1eb2 8f3d
00000220: dd57 d3bd 12dd 47bd df86 ad3c f349 96bd
00000230: 2c05 b43c 93ed 9fbc 40dc 0fbd e3f9 c23c
00000240: cfa2 6abc fbe1 ccbb 57d1 ef3c 4f92 ffbb
00000250: 9e17 00bc d993 493b 35d0 a9bd 6974 b5bd
00000260: 95fb 91bd 853e a43d 5573 9ebd 26af 53bd
00000270: d416 e0bd f1a4 b23c 7980 9fbd df98 e53c
00000280: 499e 43bc 23f1 ccbd 3797 32bd df03 c9bc
00000290: 401d c33d f0f5 b6ba 6e85 7b3d e3b3 9fbd
000002a0: 1fb0 0a3d 98c7 c4bd 3a0e 853d 3b59 593d
000002b0: a3f2 e63d f50f 94bd 660c f63c c2f5 5bbd
000002c0: c40e 693d 96ed 7d3d 810b 9a3d 0e58 6d3c
000002d0: 5814 b43d 9c87 583d c138 92bd 2417 8f3d
000002e0: ee17 2a3c 478d 05bd 4762 423b 2018 c63c
000002f0: 8020 1bbd a1af c9bd b169 04bd 33cd 8fbd
00000300: a0f2 35bc 4669 55bd 8683 e93c b020 29bd
00000310: ff93 743d 9154 b33c f35e a03d 410a ed3c
00000320: 51fc 39b9 6e27 613d 1195 a4bd 50c3 c0bb
00000330: d1a6 1fbc bc4a 8bbb bb1f b3bd 7c46 863c
00000340: 8e88 af3d 7aff 1d3c f010 413d a0de f43c
00000350: 0996 543d fb8c 00bd 8874 ecbc d068 5e3d
00000360: 075e abbd e2f0 b93d 5bc2 1b3c 5a6b 903d
00000370: 616a 6fbd 7f0d a7bc f15a 793d f1db a8bd
00000380: fb2e 623b 057f b23d 247e cc3c 9b54 9dbd
00000390: 3065 febc fd14 7c3c 9ae0 3fbd 6b8b 78bd
000003a0: 1ed8 9abd 8044 2f3d 486f 97bd 72bf 82bb
000003b0: fd83 8a3c c4b0 7f3c 3a81 cbbc e340 b4bd
000003c0: 8b52 183d d362 b2bd b721 6dbd 4ca0 8f3d
000003d0: 1e3f 95bd 7adb 5fbd 683b c4bb 72a7 e93c
000003e0: 7406 013d 5642 5fbd d527 95bd 895b b33c
000003f0: 15e0 27bd 00e6 e73c 9095 043d 81e3 89bd
-0.057540286 0.030861614 0.024691215 -0.08410779 0.010838494 -0.049415056 -0.039194584 0.0603837
-0.039330848 0.0021867035 0.043298006 -0.035844136 -0.09277282 0.016529271 -0.05964052 0.044753738
-0.07179949 0.081281945 -0.0881264 -0.03196811 -0.0071934354 0.09254468 -0.052767634 0.0174513
0.015032214 0.09675617 0.050263714 -0.06066831 -0.011629685 -0.0024562648 -0.06811983 0.057503916
0.043502506 0.044658143 -0.020828165 0.053344578 0.02404755 -0.029383346 -0.088809885 0.050753552
0.012898128 -0.020150438 0.039429065 -0.044127192 0.069522046 -0.022141451 0.044062924 0.018961871
0.06131393 -0.009339715 -0.055496365 0.0091252215 -0.12014778 -0.07122917 0.07799211 -0.005486506
0.031078545 -0.016094973 0.08805645 0.05324614 0.02547895 -0.011866381 0.029266868 0.0022989851
-0.07878219 -0.07742858 0.012853884 0.0078031616 0.046952292 -0.05155019 0.003111722 -0.034647316
0.05025059 -0.03837191 -0.06368924 0.050271526 -0.026978495 -0.082097866 -0.017267035 -0.040600117
-0.02613262 -0.018588636 -0.044520676 0.039683785 0.0018277959 -0.019452116 -0.049606692 0.013344182
-0.027721269 -0.010596966 0.045731463 -0.04754284 0.09406889 0.029005174 -0.058488633 0.013415535
0.0053695054 0.024066804 0.083482005 0.040767845 0.041401632 0.061573848 -0.057600867 0.084664024
0.04249903 -0.022136787 -0.0029543934 -0.046295144 0.012000503 -0.068861336 -0.08697704 0.000497615
-0.07303876 0.059610233 0.06208804 -0.040495064 0.01835786 0.06744013 0.031277485 0.08970326
-0.027317699 0.06294768 -0.04812349 -0.06940401 0.05718091 -0.06659797 -0.05856248 0.028796297
-0.03915995 0.019341702 0.025353659 -0.017245082 0.041797955 0.028566662 -0.059445776 0.07016395
-0.10319493 -0.048794813 0.021182476 -0.073383234 0.021975122 -0.019522464 -0.035122156 0.023800796
-0.014321043 -0.006252525 0.029274626 -0.0077994238 -0.007818131 0.003075829 -0.082916655 -0.08860094
-0.071280636 0.08019737 -0.077368416 -0.051680706 -0.10941854 0.021807166 -0.07788176 0.028026996
-0.011939594 -0.10006931 -0.04360124 -0.024537979 0.09527063 -0.0013958793 0.061406545 -0.077979825
0.03385937 -0.09608382 0.06496854 0.053063612 0.11276748 -0.07229606 0.030035209 -0.05370117
0.056898847 0.061994158 0.075217254 0.014486326 0.08792943 0.052863702 -0.07139731 0.069868356
0.010381682 -0.032605436 0.0029660629 0.024181426 -0.03787279 -0.09847952 -0.032327358 -0.070215605
-0.01110521 -0.05210235 0.028505098 -0.04129094 0.059711453 0.02189091 0.0783061 0.028935554
-0.0001773697 0.054969244 -0.08036245 -0.005882658 -0.009744362 -0.0042508524 -0.087462865 0.016391031
0.085709676 0.00964343 0.047135293 0.029891312 0.051900897 -0.03138445 -0.02886416 0.054299176
-0.08367544 0.09079148 0.009506787 0.07051726 -0.05845106 -0.020392178 0.060877744 -0.082450755
0.0034512866 0.08715633 0.024962492 -0.07682153 -0.03105411 0.015385863 -0.046845056 -0.060679834
-0.07560752 0.042789936 -0.07394272 -0.003990107 0.01690864 0.015606109 -0.024841893 -0.08801439
0.037188094 -0.087102555 -0.05789348 0.07012996 -0.07287429 -0.05465267 -0.005988527 0.028522227
0.031500295 -0.054506622 -0.07282988 0.021894233 -0.040985186 0.028307915 0.032369196 -0.06732846

bias f4 [3]
00000000: 5c37 47bd 2d72 253d 5c0b 273c
-0.04863678 0.04039209 0.010195579
