models/trajectory_ultimate.pth (torch, 3477 bytes, 4 tensors)

deviation_classifier.0.weight f4 [32, 1]
0	0x3f993850	1.197031
1	0x3fc755e0	1.5573082
2	0x3fc4d4aa	1.53774
3	0x3faeb329	1.3648425
4	0xbe46ad60	-0.19402075
5	0xbf6f0fa0	-0.93383217
6	0xbec3e257	-0.3825862
7	0x3f598099	0.8496185
8	0xbf221cfa	-0.63325465
9	0xbdb4b1b0	-0.08822954
10	0xbda597d0	-0.080855966
11	0x3f254a17	0.6456618
12	0x3ebbb03a	0.36657888
13	0x3ebc9e73	0.36839637
14	0xbf73e740	-0.95274734
15	0x3f82515d	1.018108
16	0xbf379085	-0.71704894
17	0xbf1d12a4	-0.6135657
18	0xbf11e156	-0.5698446
19	0xbf8a827d	-1.0821072
20	0x3f8818a0	1.0632515
21	0x3ecef092	0.40417916
22	0x3f2501e5	0.64456016
23	0x3ddc1b60	0.10747409
24	0xbf65767c	-0.8963392
25	0x3e2fb7e4	0.17159992
26	0xbe87b242	-0.26503187
27	0xbeb7bcd0	-0.3588624
28	0x3fc1a323	1.512791
29	0x3c882d40	0.01662314
30	0xbf5b4494	-0.85651517
31	0xbf63405d	-0.88770086

deviation_classifier.0.bias f4 [32]
0	0xbdb7b21a	-0.08969517
1	0xbdf1b3c7	-0.11801868
2	0xbe0faa43	-0.14029793
3	0x3e1a95a0	0.1509614
4	0xbda9ed30	-0.08297193
5	0x3f305881	0.68885046
6	0x3f86d83d	1.0534741
7	0xbd893ad4	-0.06700674
8	0x3f37b2e5	0.71757346
9	0xbdd720e0	-0.10504317
10	0xbf3fcfdc	-0.74926543
11	0x3f08c7e7	0.53430027
12	0x3f898800	1.0744629
13	0x3f62feca	0.8867003
14	0x3f337984	0.70107293
15	0xbd9c1f4b	-0.07623156
16	0x3f4ed6c0	0.8079643
17	0xbe729158	-0.23688257
18	0xbd187680	-0.037222385
19	0x3f4c0860	0.7970028
20	0xbe3d3ba3	-0.18479781
21	0x3f604f9d	0.8762148
22	0x3dcda390	0.10040963
23	0xbf533e9a	-0.825174
24	0xbf306250	-0.6890001
25	0x3f49d7e6	0.7884506
26	0x3f838568	1.0275087
27	0xbef84bd4	-0.48495352
28	0xbe01235b	-0.12611143
29	0xbd864ae0	-0.0655725
30	0xbea2743c	-0.31729305
31	0x3f71d117	0.9445967

deviation_classifier.2.weight f4 [3, 32]
0	0xbed05ca8	-0.4069569
1	0xbee3b88c	-0.44476736
2	0xbecaf172	-0.39637333
3	0xbf0a1630	-0.53940105
4	0x3e0d7d0d	0.13817234
5	0x3ee12187	0.43970892
6	0x3dd32583	0.10309889
7	0xbe946323	-0.28981885
8	0x3f301133	0.68776244
9	0xbd89f333	-0.0673584
10	0x3d7f9d6c	0.06240599
11	0xbe7787eb	-0.24172942
12	0x3d6cfc3d	0.05785774
13	0xbd3c64d2	-0.045994587
14	0x3f155e36	0.5834688
15	0xbea9ea1d	-0.33186427
16	0x3f49ae3e	0.787815
17	0xbdc42166	-0.09576683
18	0x3dd6a2f2	0.10480298
19	0x3f21d532	0.63215935
20	0xbf45cb03	-0.77262896
21	0xbdec9f1e	-0.11553787
22	0xbe8b47de	-0.27203268
23	0x3da2fff6	0.07958977
24	0x3c98cc38	0.018652067
25	0x3db14667	0.08656006
26	0x3e7ea4aa	0.24867502
27	0x3db8e4f2	0.09028043
28	0xbee81bd2	-0.45333725
29	0x3e17e3fd	0.14833064
30	0x3d835c02	0.064140335
31	0x3f12a86e	0.57288253
32	0x3e1c1ae7	0.15244637
33	0x3e899d47	0.26877806
34	0x3e8d1364	0.27553856
35	0x3e2163ef	0.15760778
36	0xbe168d1f	-0.14702271
37	0xbeea04a1	-0.45706657
38	0xbee968e4	-0.45587838
39	0x3ea2f8a3	0.3183032
40	0xbf7e32b1	-0.992961
41	0x3d670330	0.056399524
42	0x3de757fa	0.11296077
43	0x3d83445f	0.06409525
44	0xbe42dda3	-0.1902986
45	0xbe2ed1b1	-0.17072178
46	0xbe6a9967	-0.22910081
47	0x3eb589c7	0.35456678
48	0xbf6890eb	-0.9084613
49	0x3e31106d	0.17291422
50	0x3e1a0211	0.15039851
51	0xbed610d4	-0.41809714
52	0x3f0522e8	0.5200639
53	0xbe395246	-0.18097791
54	0x3c85ea1e	0.016346987
55	0x3dd93f96	0.10607831
56	0xbd819779	-0.06327719
57	0xbc42cfd5	-0.011890371
58	0xbe6c1a21	-0.23056842
59	0x3e0697ad	0.13143797
60	0x3e8a4ddd	0.2701253
61	0x3d961402	0.07328035
62	0x3d8c8278	0.068608224
63	0xbec96bea	-0.39340144
64	0x3e11073e	0.14162919
65	0x3e69533a	0.22785655
66	0x3e478f8b	0.19488351
67	0x3d8d1625	0.06888989
68	0xbdc334af	-0.09531533
69	0xbf556bee	-0.8336781
70	0xbc49bd38	-0.01231318
71	0xbc77cfbe	-0.015125213
72	0xbea077d1	-0.31341413
73	0x3d4b8598	0.04968795
74	0xbdf798da	-0.12089701
75	0xbd84aff1	-0.06478871
76	0xbd88a6fe	-0.06672476
77	0x3d463b4a	0.048396386
78	0xbf1d263f	-0.61386484
79	0x3e6fb806	0.23410043
80	0xbe813a0f	-0.25239608
81	0x3b2c8ac0	0.0026327819
82	0x3e010d93	0.12602834
83	0xbf6daf31	-0.92845446
84	0xbcd2cb99	-0.025731849
85	0xbd82931e	-0.063757166
86	0x3e220e19	0.1582569
87	0x3c8d48d0	0.017246634
88	0x3de8505a	0.11343451
89	0x3e4411fd	0.19147487
90	0x3da399b5	0.07988302
91	0xbddf81dd	-0.10913441
92	0x3e7fb3c9	0.24970926
93	0xbde57085	-0.11203102
94	0xbd39a8ac	-0.045326874
95	0xbdf61e5e	-0.12017511

deviation_classifier.2.bias f4 [3]
0	0x3e1dbdc3	0.1540442
1	0xbd248888	-0.04016927
2	0x3d1e1475	0.038593728
