models/trajectory_ultimate.pth (torch, 3413 bytes, 4 tensors)

deviation_classifier.0.weight f4 [32, 1]
0	0xbf31bfa1	-0.6943303
1	0xbe2a3d20	-0.1662488
2	0xbef6cc50	-0.48202753
3	0x3e7725e1	0.24135543
4	0xbe67d2c0	-0.22638988
5	0xbdc53890	-0.09629929
6	0xbf438c3a	-0.76385844
7	0xbf6cf3ec	-0.92559695
8	0xbf340536	-0.7032045
9	0x3edd2441	0.43191722
10	0xbf00b236	-0.5027193
11	0x3ed284d6	0.4111697
12	0x3e93665e	0.28789037
13	0xbef77b79	-0.4833639
14	0x3e9249d5	0.28571954
15	0xbe477a40	-0.19480228
16	0xbf6abeec	-0.91697574
17	0x3f60a9f1	0.8775931
18	0xbe58e4d0	-0.21181035
19	0x3efb1596	0.49039906
20	0xbf2e1c67	-0.6801209
21	0xbd70f563	-0.05882777
22	0xbf6e9d62	-0.932089
23	0xbf5629c0	-0.83657455
24	0x3f1964d2	0.59919465
25	0xbea54bc0	-0.32284355
26	0xbf495500	-0.78645325
27	0x3f1bdbd1	0.6088229
28	0xbf67b4f8	-0.9051051
29	0x3f028752	0.5098773
30	0x3eadab4f	0.3391976
31	0x3f587106	0.8454746

deviation_classifier.0.bias f4 [32]
0	0x3f242585	0.6411975
1	0x3e9e2ab7	0.30891964
2	0xbe7c2160	-0.24622107
3	0x3f5e3822	0.868044
4	0xbeb48184	-0.35255063
5	0x3f12fb99	0.5741516
6	0xbc138080	-0.009002805
7	0x3f33a347	0.70171016
8	0x3d68bc60	0.056820273
9	0xbebaad50	-0.36460352
10	0x3f5fa344	0.873585
11	0xbf35a758	-0.7095847
12	0x3f6e4bd3	0.9308445
13	0x3f289645	0.65854293
14	0x3f6a4ee5	0.91526634
15	0xbe3dcd88	-0.18535435
16	0x3e817bec	0.25289857
17	0x3dba75bc	0.09104487
18	0xbee76b00	-0.45198822
19	0x3ec1746e	0.3778414
20	0x3f42267b	0.75839967
21	0x3f62f8c6	0.8866085
22	0x3e336428	0.17518675
23	0x3f6349ee	0.8878468
24	0xbefab30c	-0.48964727
25	0xbe5fdf68	-0.21862566
26	0xbf4d7fa4	-0.8027289
27	0xbc982b9c	-0.018575482
28	0xbf309eaa	-0.689921
29	0x3c992ea6	0.018699002
30	0x3d14d2e7	0.036333945
31	0x3e806891	0.25079778

deviation_classifier.2.weight f4 [3, 32]
0	0xbc5e8989	-0.013582596
1	0xbe44e1c1	-0.19226743
2	0x3d6ba5a4	0.057531014
3	0x3bb3882b	0.005478879
4	0x3d5c6564	0.05380763
5	0xbe320a26	-0.17386684
6	0xbd6ca018	-0.057769865
7	0xbd1c258c	-0.038121745
8	0xbe0b644f	-0.13612483
9	0xbe0fec0b	-0.14054887
10	0x3c7733f6	0.015088072
11	0x3d3de97c	0.046365246
12	0x3df708f7	0.12062257
13	0xbdc5fcbc	-0.09667346
14	0x3c11916a	0.008884767
15	0xbd870892	-0.065934315
16	0xbe1d9270	-0.15387893
17	0xbd452ab3	-0.048136424
18	0xbd0599a0	-0.03261721
19	0x3d942ecd	0.07235489
20	0xbdce6127	-0.10077124
21	0xbd963490	-0.07334244
22	0x3cf35160	0.029701889
23	0xbd712d78	-0.058881253
24	0xbd3ea180	-0.046540737
25	0x3d87e470	0.06635368
26	0x3df7e2ca	0.121038035
27	0x3d69ed00	0.057110786
28	0x3de81866	0.11332779
29	0x3df9b06c	0.12191853
30	0xbd68d8bf	-0.05684733
31	0xbdaf7117	-0.08566492
32	0x3d9032e0	0.07040954
33	0x3e3f59ac	0.18686551
34	0xbd96bf34	-0.07360688
35	0x3dc5e13f	0.09662103
36	0x3e045f69	0.12927021
37	0xbd798a55	-0.06092294
38	0x3e21bc0f	0.15794395
39	0x3d764408	0.060123473
40	0xbdf3b5e0	-0.11899924
41	0xbe1157fb	-0.14193718
42	0xbd274b9e	-0.0408436
43	0x3dc0a0ee	0.09405695
44	0xbdf70b2e	-0.12062679
45	0x3e5693cf	0.20954822
46	0xbd80322a	-0.06259568
47	0xbd125a3c	-0.035730585
48	0x3d92d69e	0.07169841
49	0xbe2e9f6f	-0.17053007
50	0x3d7928c8	0.060829908
51	0xbe2334ab	-0.1593806
52	0xbe051740	-0.1299715
53	0x3c012610	0.00788261
54	0x3d031e14	0.032011107
55	0x3cc34998	0.023838803
56	0x3dcae7f4	0.09907523
57	0x3d799f80	0.060943127
58	0xbe156db1	-0.14592625
59	0xbe14638d	-0.144911
60	0xbe1b7b80	-0.1518383
61	0x3dda259a	0.10651703
62	0x3bc45e15	0.0059926608
63	0xbda08f1d	-0.07839797
64	0xbdb61915	-0.08891503
65	0x3dccb3a9	0.09995205
66	0xbdf6ed91	-0.12057031
67	0xbd9195f2	-0.07108678
68	0x3b30cc40	0.0026977211
69	0xbd1f3957	-0.038873043
70	0x3e060605	0.13088234
71	0xbd71e8e4	-0.059059992
72	0xbe24af9f	-0.16082619
73	0x3e3ee318	0.18641317
74	0xbdf77f22	-0.120847955
75	0x3d78c9c0	0.06073928
76	0x3dc9fb04	0.098623306
77	0xbc092faf	-0.008373185
78	0xbd16fe20	-0.036863446
79	0xbd3806fc	-0.044928536
80	0xbe27a8b5	-0.1637295
81	0xbd64fa4c	-0.055902764
82	0x3c085bc0	0.008322656
83	0xbd250c44	-0.0402949
84	0xbd43a9ed	-0.047769476
85	0x3e36f11e	0.17865416
86	0x3e1c3bb5	0.15257151
87	0x3c21466b	0.009843449
88	0xbdb0bc03	-0.086296104
89	0xbdda5322	-0.106603876
90	0xbcc331c8	-0.023827448
91	0x3d13740b	0.03599934
92	0xbcc83710	-0.024440318
93	0x3e0cc417	0.13746677
94	0xbd30af8a	-0.043136157
95	0xbe0e7463	-0.13911586

deviation_classifier.2.bias f4 [3]
0	0xbd97cc08	-0.07411963
1	0xbdf85d4f	-0.12127172
2	0x3d944334	0.072393805
