models/trajectory_ultimate.pth (torch, 3477 bytes, 4 tensors)

deviation_classifier.0.weight f4 [32, 1]
000000 0f 7a 4a bf 94 53 5a bf c2 52 54 bf 99 53 98 3f
       -0.79092497 -0.8528378 -0.8293878 1.1900512
000010 39 dd 10 be c0 93 32 bd 62 b3 83 3f d6 3e 3e bf
       -0.1414689 -0.043597937 1.0289118 -0.7431463
000020 89 73 99 3f 18 87 23 bf 9d 10 78 3f c0 20 e1 3d
       1.1988384 -0.6387801 0.9690035 0.10992575
000030 ae 27 43 3f 50 4b 08 bf ee 65 11 bf 64 7e db be
       0.7623242 -0.5323992 -0.5679616 -0.42869866
000040 40 cd df 3c 4c 44 b0 3f 12 87 05 bf 98 c7 01 be
       0.02731955 1.3770843 -0.52159226 -0.12673795
000050 c1 2b 34 3f 56 6f 67 bf 3c fa 47 bf fe e2 91 bf
       0.70379263 -0.9040426 -0.781162 -1.1397398
000060 28 d0 61 bf 0c a6 b5 be 96 d8 ec be 5f 13 27 bd
       -0.88208246 -0.35478246 -0.46258992 -0.040789958
000070 8f fb 2a bf 33 2b 4e bf f1 af 51 3f 51 2c 77 3f
       -0.667901 -0.80534667 0.8190909 0.96551996

deviation_classifier.0.bias f4 [32]
000000 92 2a 1a 3f 7c 0b 3b bf a9 c2 62 3f d1 96 9f bd
       0.6022121 -0.730644 0.8857828 -0.07792438
000010 e9 ae da 3e 70 24 c3 be 44 a7 34 be 58 af 33 be
       0.4271157 -0.38113737 -0.17641932 -0.17547357
000020 2e db 11 3f 00 4b f1 bd 4d ef 3d bf 6c 26 e6 be
       0.56975067 -0.11781883 -0.7419327 -0.4495119
000030 42 42 53 bd f6 4a 35 bf 37 a0 38 3f c0 10 6b bd
       -0.05157686 -0.70817506 0.7211947 -0.05738902
000040 18 11 b3 be 80 00 1b 3f b4 91 5f 3f 5e 5c 61 bf
       -0.3497398 0.6054764 0.873317 -0.88031566
000050 7f 49 4c 3f 7c 87 82 be 56 ad 39 bf 95 b0 a7 3f
       0.79799646 -0.2549399 -0.72530115 1.3100764
000060 e0 c2 1c bd 4c 0a 47 bf 4c 00 07 3f 06 df 47 3f
       -0.038271785 -0.77750087 0.5273483 0.7807468
000070 90 28 38 3f c0 bc 39 3f c2 10 61 bd 80 13 d6 3e
       0.71936893 0.72553635 -0.054947622 0.41811752

deviation_classifier.2.weight f4 [3, 32]
000000 a2 90 b0 3e e6 54 d7 3d e4 0b 1e 3f 41 41 24 bf
       0.34485346 0.1051424 0.61736894 -0.6416207
000010 8e a1 7d 3e 40 85 d4 3c 34 42 80 bf bc a9 3f bd
       0.2476866 0.025942445 -1.0020204 -0.04679273
000020 ca 9b ce be 71 98 0d be 29 9a 67 bd 5e d1 c8 3d
       -0.40353233 -0.13827683 -0.056543503 0.098055586
000030 1c 81 57 bf 88 c3 dc bd f6 67 13 3f 7a b5 f2 3d
       -0.8418138 -0.10779482 0.57580507 0.1185102
000040 a1 34 86 bd b6 66 c0 be 2c f4 84 3e c4 7d 11 3d
       -0.06553007 -0.37578362 0.25967538 0.03552033
000050 9a 59 3a be a8 05 35 bd a2 1b e3 bd 8f fc fd 3e
       -0.18198243 -0.044194847 -0.11089255 0.4960675
000060 a0 de c0 3c 1b cc 1d 3e 3d 07 09 3f 61 be c4 3d
       0.023543656 0.15409891 0.5352667 0.096066244
000070 36 f3 20 3f cb 40 64 3f b4 3f 1a bf 06 bc 79 be
       0.6287111 0.89161366 -0.60253453 -0.24388131
000080 e8 e5 a5 be 35 71 29 3e 26 47 04 bf 79 95 81 3d
       -0.32401967 0.16547091 -0.51671064 0.06327338
000090 27 37 62 be 80 89 f3 bc e3 c5 ec 3e 6b 8d 24 3e
       -0.22091351 -0.029728651 0.46244726 0.16069572
0000a0 49 43 e4 3d c0 5d 00 3d b6 d9 ee 3d b4 bd 30 bd
       0.11145646 0.031339407 0.11662619 -0.043149665
0000b0 2d 7a 11 3f 93 a2 33 3e d2 65 05 bf 99 34 0a 3e
       0.5682705 0.17542486 -0.5210849 0.13496627
0000c0 88 50 91 3d 8f 54 17 3e 3e 73 8a be 14 b6 03 bd
       0.07095438 0.1477835 -0.27041048 -0.032156065
0000d0 eb 50 9c bd 83 9f 11 3e 79 4f d4 bd 70 9a 14 bf
       -0.076326214 0.14221005 -0.10366721 -0.5804815
0000e0 80 f3 cc bc e8 08 23 3d 72 bd 16 bf 1d 7f 35 bd
       -0.025018454 0.039803416 -0.5888282 -0.044310678
0000f0 21 c7 27 bf 40 f4 7a bf 27 87 c3 3d 6c 41 64 3e
       -0.6553822 -0.98028946 0.09547263 0.22290581
000100 64 ce 62 bf 02 36 1e be 7d 76 ac be 7f a0 19 3e
       -0.8859618 -0.1545029 -0.3368415 0.1500263
000110 ed cb 14 3e a0 2f 02 bc ff b5 04 bd 97 a6 a6 bd
       0.14530917 -0.007945925 -0.032400128 -0.08137243
000120 ef b0 40 3c 20 0e f8 3b b1 7a d2 bd fa a8 d2 3d
       0.011760934 0.007570043 -0.10277308 0.10286136
000130 b5 1d 70 3e 17 3d 27 3e 2d a7 ac 3c a2 68 f5 bd
       0.23448832 0.16331898 0.02107581 -0.11982848
000140 ce 1c ed bd ce 88 5c 3e ec 4b 6d be 9a f4 a9 bd
       -0.1157776 0.21536562 -0.23173493 -0.08298607
000150 6d 56 83 3e ea 8a ef 3d 0e 0a f2 bd b8 69 68 be
       0.25651875 0.11696418 -0.11818324 -0.22696579
000160 20 54 bb 3b 02 2b 59 bd 5e b1 42 bd 40 0d 9e bd
       0.0057168156 -0.05301953 -0.04753243 -0.07717371
000170 e4 ee b2 be 2e c1 5e bf 7b db e4 3e 19 84 6b 3d
       -0.34947884 -0.8701352 0.446987 0.057499025

deviation_classifier.2.bias f4 [3]
000000 7f 48 71 3e 0a 37 3d be 3e f1 1c 3d
       0.23562811 -0.18478027 0.038316004
