models/trajectory_ultimate.pth (torch, 3413 bytes, 4 tensors)

deviation_classifier.0.weight f4 [32, 1]
00000000: a01a 8abe ed06 c9bd b883 1dbe c8a1 11bf
00000010: 7b38 c73e eb78 503f b2c2 56bf 84c4 f03e
00000020: 6800 953e cf89 d53e 7076 e8be ba37 72bf
00000030: 154b 9a3f acc5 f6be 945c 2e3f a266 78bf
00000040: 1c11 28bf b040 bebd b630 0fbf 7ee1 033f
00000050: f4f5 0cbf 407e 9ebe 206a c0be 5c1b c3be
00000060: 4c8e 84be 3288 6dbf 7099 263f b554 ffbd
00000070: b20c 58bf e8ae 5abf 0325 033f 0f4e 483f
-0.26973438 -0.09815774 -0.15382278 -0.56887484 0.3891028 0.81434506 -0.8389083 0.4702493
0.29101872 0.41706702 -0.4540286 -0.9461628 1.2054163 -0.48197687 0.68110013 -0.97031605
-0.65651107 -0.09289682 -0.559337 0.5151595 -0.55062795 -0.30955696 -0.37580967 -0.3810681
-0.25889814 -0.9278594 0.6507788 -0.124673285 -0.8439437 -0.85423136 0.5122835 0.7824411

deviation_classifier.0.bias f4 [32]
00000000: 8039 c8bc d019 203f 6e23 22bf 9a67 5e3f
00000010: e9dd 3bbf 2942 7bbf 8829 553e a978 9dbd
00000020: 04fe d43e da83 373e 1030 1dbf 6c19 913e
00000030: 5299 a23f b00f b9be 76a9 073e 8046 dd3d
00000040: 4039 813d 708d 7cbf 0c40 86be 97a5 9b3d
00000050: 802f 543e 00df c13b 084f 67bf 6ee7 7ebf
00000060: a046 1abf e800 193e b5e6 85bf 4cc3 8c3f
00000070: b090 35bf 66a8 79bf 885c f1be c12d a13e
-0.02444148 0.62539387 -0.6333531 0.86876833 -0.73385483 -0.9814783 0.20816624 -0.0768903
0.4160005 0.17921391 -0.6140146 0.28339708 1.270304 -0.3614478 0.13248238 0.108044624
0.06309748 -0.98653316 -0.2622074 0.07599943 0.20721245 0.0059164762 -0.9035497 -0.99571884
-0.60264015 0.14941752 -1.0461031 1.09971 -0.709239 -0.9752258 -0.47140908 0.3148022

deviation_classifier.2.weight f4 [3, 32]
00000000: 263e dc3d 5551 08be e553 1dbe 89a0 2b3e
00000010: a3b5 243e e4ff 72bd c7cf 1e3e d0c8 3f3e
00000020: eca0 7d3e 1e55 443e 344a 3abd 4090 44bb
00000030: 67bb e43d 4cc3 03be e54b 573e bf49 1bbe
00000040: 3f44 2ebe 75df 25be 5dd9 303e 9dc6 813e
00000050: ead8 0bbe 5183 cbbd 97e4 073e d128 2abe
00000060: 7872 52bd f621 ab3d 5673 fe3d f968 90be
00000070: 3902 0a3e f8a9 6c3d f6f7 453d 057b 11bd
00000080: 882e a5bd c05f 913d a057 933c 8ec4 8cbe
00000090: f23c 09be 3800 d1bd b713 debd 24f9 413e
000000a0: 58cb 063d f997 e33d e2e1 883d 3004 583d
000000b0: c88d 4b3e 6095 5bbc 5492 823e 1a92 e53d
000000c0: f093 3b3d 304f 253d 7d93 25be ccf8 7fbc
000000d0: 3ce3 8b3d 5628 fc3d 803f b1ba 0bee 8fbd
000000e0: 52cb ac3d 7fd2 ccbd eeec 62bc 316d 423e
000000f0: 3ce9 07be ac58 3dbd f14b b83d 61b0 563e
00000100: da96 823d 3fb4 27bf a421 bebd 8e38 46bf
00000110: 9d6f d4bd d139 dcbd f4cc 803d e183 aebe
00000120: acb6 b6bd 45dc febd a806 97bc 6cf0 633d
00000130: 5006 a4be 28db ff3c 0d5d 76bd a737 b9bd
00000140: 482e 32bd 0bfe 0abe 9b03 213e dc5a b1be
00000150: ec55 eebd 495f 2e3e bc44 053d a696 d93d
00000160: 905c 0abe ca9a c33d 21d1 733c 5a1f 47bf
00000170: 95af 133e 6979 85bd 9229 2d3d 6b7c 2abe
0.107540414 -0.13312276 -0.15364034 0.16760458 0.16084914 -0.059326068 0.15508948 0.18728948
0.24768418 0.19173095 -0.045480922 -0.0029993206 0.11168557 -0.12867469 0.21025045 -0.1516485
-0.17018221 -0.16198523 0.17270418 0.25346842 -0.13656965 -0.09937156 0.13270794 -0.16617133
-0.051378697 0.08356087 0.12424342 -0.28205088 0.1347741 0.057779282 0.048332177 -0.03551771
-0.08065516 0.07098341 0.017986119 -0.2749371 -0.13402155 -0.1020512 -0.10843604 0.18942696
0.032908767 0.11112971 0.06683709 0.05273837 0.19878304 -0.013402313 0.25502264 0.11209507
0.04579538 0.040358722 -0.16169544 -0.015623283 0.06830451 0.12312381 -0.0013522953 -0.07027825
0.08437218 -0.100010864 -0.013850434 0.18986966 -0.13272566 -0.046227142 0.0899886 0.2096572
0.06376429 -0.6550941 -0.0928376 -0.77430046 -0.10372851 -0.10753215 0.06289092 -0.3408499
-0.08921561 -0.12444357 -0.018435791 0.055649206 -0.32036066 0.031232432 -0.060147334 -0.09043818
-0.04350117 -0.13573472 0.15724032 -0.34639633 -0.11637482 0.17028536 0.032536253 0.10624437
-0.13511872 0.09551008 0.014881403 -0.77782214 0.14422448 -0.06517298 0.042275973 -0.16649024

deviation_classifier.2.bias f4 [3]
00000000: 8e71 7cbd a862 1d3d 13a2 8bbe
-0.06163173 0.038424164 -0.2727209
