models/trajectory_ultimate.pth (torch, 3477 bytes, 4 tensors)

deviation_classifier.0.weight f4 [32, 1]
000000 ae 0c c1 3d 6a 3d ec be 30 fe d4 3e 9a c2 27 3f
       0.094262466 -0.46140605 0.4160018 0.65531313
000010 7c f4 67 bf bc fa 25 3f 93 98 b0 be ce 96 bf 3e
       -0.9060743 0.64835715 -0.34491405 0.37419742
000020 13 c3 68 bf 5d 64 15 bf c4 f4 1f 3f 1d c2 42 3f
       -0.9092266 -0.5835627 0.6248286 0.76077443
000030 29 ae 6b bf 45 01 e4 bc 47 76 a2 3e 2e 6a 31 bf
       -0.9206262 -0.027832637 0.31730863 -0.6930264
000040 bc 8e 05 3f cc 2a ab be b0 0e b7 3c bd 37 45 bf
       0.5217092 -0.3343109 0.02234587 -0.77038175
000050 40 08 77 3f 85 e6 cf 3c d4 52 60 bf 4e 1e 2d 3e
       0.96496964 0.025378475 -0.87626386 0.16906092
000060 55 57 e1 3e c6 f4 83 be 0c 62 f2 b3 b1 42 a2 be
       0.44011942 -0.25772685 -1.1286838e-07 -0.31691507
000070 f2 4a eb be 50 19 34 3f 54 e9 ae 3d b7 57 a2 be
       -0.45955616 0.70351124 0.085405976 -0.31707546

deviation_classifier.0.bias f4 [32]
000000 65 dc 63 bf 7e af 11 3f 8f 17 3e bf 4a 64 ba 3e
       -0.8900817 0.56908405 -0.742547 0.3640464
000010 5b 59 8a b5 68 ca 9e be e7 53 55 3f 78 31 80 3e
       -1.0307807e-06 -0.310138 0.8333115 0.25037742
000020 6f bb 70 3f 7d a4 cb 3e a0 88 f5 be 15 98 10 bf
       0.94036 0.39773932 -0.479558 -0.5648206
000030 69 81 f9 be 63 1b 74 3f 29 b1 8a be c3 e4 03 3f
       -0.48731545 0.9535429 -0.27088287 0.5152094
000040 d0 3c 02 bf b8 1b 44 3e 52 88 9b 3e a8 ec 83 3e
       -0.5087404 0.19151199 0.30377442 0.25766492
000050 fd 25 2b 3f 62 2e 57 bf c4 4f 96 be 1c 07 cd be
       0.6685484 -0.8405515 -0.2935773 -0.40044487
000060 3e 58 09 bf 20 0c 3b be 09 2b dd b7 24 fb 3e 3f
       -0.5365027 -0.18266344 -2.6365293e-05 0.7460196
000070 37 6f 09 bd 76 8a 1b 3e 47 d4 52 be 08 68 ee 3e
       -0.03355333 0.15189537 -0.2058879 0.46563745

deviation_classifier.2.weight f4 [3, 32]
000000 a8 ad 12 b2 1c 73 a3 bd 02 8d c7 3d 15 05 85 bd
       -8.537803e-09 -0.0798094 0.09743692 -0.0649511
000010 6b 71 a0 3d 37 4e 13 3e fc 20 2a be 51 07 29 3e
       0.07834133 0.14385305 -0.16614145 0.16506697
000020 f1 ff 7a bd 12 24 0f 3e 30 f7 56 3e 67 f2 04 3e
       -0.06127924 0.13978603 0.20992732 0.12983094
000030 65 ba 88 3d df 1c 4b 3e 24 3c 04 be 97 a0 c8 3a
       0.06676177 0.19835232 -0.12913567 0.0015306649
000040 bb 58 1c bd 21 4b 15 3e c2 3c a9 bb 49 10 eb bd
       -0.038170557 0.1457944 -0.0051647136 -0.114777155
000050 1e bf ad bd 1b b2 0e 34 c4 ba 60 3d 7d da 98 bc
       -0.08483718 1.3289575e-07 0.054865614 -0.01865887
000060 87 37 2a 3e f0 a6 77 3c d2 95 c6 bb 1a 19 e1 bd
       0.16622745 0.015115485 -0.0060603404 -0.10991116
000070 3c d7 12 3c d9 7f 3f 3d 9b f0 a0 3d 9c 76 e5 3d
       0.008962449 0.046752784 0.07858392 0.112042636
000080 dd a8 7c 3d 45 0a 57 3d a2 83 b8 bd c3 61 94 3c
       0.061684478 0.05250003 -0.09009482 0.018113023
000090 25 ef cf 33 83 6c 50 bd 7d d4 41 bd 16 99 41 bd
       9.682689e-08 -0.050884735 -0.047321785 -0.047265135
0000a0 dd 48 1b 3e 85 15 4e bd d5 b8 63 3d d0 20 19 bd
       0.15164514 -0.05031349 0.05559619 -0.037384808
0000b0 fe 33 a3 bc 58 09 71 bd 43 67 ed 3d 99 4e a6 3d
       -0.019922253 -0.0588468 0.11591961 0.0812046
0000c0 d8 26 95 bd 53 ff 91 bd 0d 33 df 3d 51 97 90 bd
       -0.072827995 -0.07128777 0.10898409 -0.07060111
0000d0 83 72 3e be b2 37 b2 bd 57 66 ea 3a c8 75 99 ba
       -0.1859837 -0.08702029 0.0017883283 -0.0011708075
0000e0 0f cb 09 be 6b b0 0e bc 83 20 a1 3d 6d f6 9b bd
       -0.13456367 -0.0087090535 0.07867529 -0.07615361
0000f0 a4 29 9a 3d 10 3c 30 be 23 06 cf 3d a2 2b 44 bd
       0.075274736 -0.17210412 0.10108592 -0.047893174
000100 6b df 86 3c 9a a1 4e ba 46 f8 8d 3d 13 11 37 bd
       0.016463956 -0.0007882357 0.0693212 -0.044694018
000110 4c 07 8c 3d 5b 4c c3 3d 86 4f 87 3d d8 54 04 3e
       0.06837329 0.09536048 0.06606965 0.1292299
000120 4c 37 cc bc 6d 34 0b 3e bf 39 2c be f1 fa 33 bd
       -0.024928711 0.13594218 -0.16818903 -0.04394049
000130 0c 6a 0f bd 75 4f fb 3d ef 81 20 be 66 cb c6 3c
       -0.035013244 0.122710146 -0.15674566 0.02426691
000140 bb 18 c3 3d 5f 0f 29 3c 62 e3 f2 ba 93 85 ca 3c
       0.09526201 0.010318606 -0.00185309 0.024721896
000150 05 97 b1 3d d8 41 02 bd 03 ed 35 bd 5e df 8d 3c
       0.08671383 -0.031801075 -0.044415485 0.017318424
000160 a2 80 65 bd 01 69 ae bd de 88 ad bd 7c 73 01 3e
       -0.056030877 -0.08516122 -0.08473371 0.1264171
000170 f7 1a 63 3c 13 a0 c5 3d 51 e3 74 3d ef dd c8 3c
       0.013861409 0.09649672 0.0597871 0.024519889

deviation_classifier.2.bias f4 [3]
000000 f8 f0 fd 3d 08 f3 2e 3d 09 58 90 bd
       0.12399477 0.04271224 -0.070480414
